old files/best_synth_fld.pt (torch, 65582 bytes, 15 tensors)

channel_embed f4 [3, 64]
0	0x3ec0fb98	0.3769195
1	0x3ef19928	0.4718716
2	0xc0057f3f	-2.0858915
3	0x3d4422f6	0.047884904
4	0xbf4b8f28	-0.79515314
5	0xbf1decfb	-0.6168973
6	0x3e1543ab	0.14576595
7	0xbf825e2e	-1.0184991
8	0x3eb0ec2d	0.34555188
9	0xbfd3984a	-1.653085
10	0x3f94a6b8	1.1613379
11	0xbf04aeb6	-0.5182909
12	0x404097d2	3.0092664
13	0x3eb937d0	0.36175394
14	0xbf830163	-1.0234798
15	0xbf939be7	-1.1531953
16	0xbe07fa83	-0.13279156
17	0xbda0efd9	-0.07858247
18	0xbf3c2372	-0.73491585
19	0xbeecb87d	-0.46234503
20	0x3e1246b5	0.14284785
21	0x3fb65d06	1.4247139
22	0xbfbd6bea	-1.4798558
23	0xbf9d2b8b	-1.2278913
24	0xbfcb3802	-1.5876467
25	0xbf59a557	-0.85017914
26	0xbd9c5501	-0.07633401
27	0x3e7d4f8d	0.24737377
28	0x3dd4879a	0.103774264
29	0xbf654546	-0.8955883
30	0x3ea9b12a	0.33142978
31	0x3fb66c6d	1.4251839
32	0xbf385b20	-0.72014046
33	0xbecad987	-0.39619085
34	0x3f16558e	0.58724296
35	0x4006778e	2.101047
36	0x3fc9f279	1.5777122
37	0xbc7f58e7	-0.015585161
38	0xbf1bee7e	-0.60910785
39	0xbf1aeeb1	-0.60520464
40	0x3f9d9d4d	1.2313629
41	0x3f2e7d23	0.68159693
42	0xbf482d08	-0.7819371
43	0xbf9f0f70	-1.2426586
44	0xbf809f68	-1.0048647
45	0x3f9cf8d3	1.2263435
46	0x3e7ba920	0.24576235
47	0xbe8df770	-0.27727842
48	0x3f1d70ac	0.6150005
49	0xbf48c447	-0.78424495
50	0xbf716cb1	-0.94306475
51	0x3f406a8b	0.7516257
52	0xbebbca4a	-0.36677772
53	0x3f07c704	0.5303805
54	0xbedbcc44	-0.4292928
55	0xbfbe5bd6	-1.4871776
56	0xbce4d303	-0.02793265
57	0x3ffdf225	1.9839522
58	0xbfd5733a	-1.6675789
59	0xbf30b036	-0.69018877
60	0x3f90524b	1.1275114
61	0x3f8c4493	1.0958427
62	0xbfecb69b	-1.8493227
63	0x3fcb952a	1.5904896
64	0xbfc5374b	-1.5407499
65	0x3de4ab33	0.11165466
66	0xbfc76177	-1.5576619
67	0xbf345a7f	-0.70450586
68	0x3f969acc	1.176599
69	0xbfa8ccc6	-1.3187492
70	0xbf428127	-0.7597832
71	0xbfe155ff	-1.7604369
72	0xbf48dee9	-0.78465134
73	0x3f26fc6c	0.65228915
74	0xbf9528a4	-1.1653028
75	0xbf1e35ea	-0.61801016
76	0xbebd59da	-0.36982614
77	0xbe87330c	-0.26406133
78	0xbf6746fb	-0.9034268
79	0x3f25dc35	0.64789134
80	0xbf77a031	-0.9672881
81	0x3fc988f4	1.574492
82	0x3ea1461e	0.31498808
83	0x3d382938	0.044961184
84	0xbf3ea8e7	-0.74476475
85	0xbec2300f	-0.3792729
86	0xbfa7efc8	-1.312005
87	0x400550e6	2.0830626
88	0xbf6a6a13	-0.91568106
89	0xbfd3bc6f	-1.654188
90	0x3e7426c0	0.23842907
91	0x3f2b0bd3	0.6681492
92	0x4003d8cd	2.0601075
93	0xbf7f4d83	-0.9972765
94	0xbd385d77	-0.04501101
95	0x3f28a63c	0.65878654
96	0x3d316bd2	0.043315716
97	0xbfc5fefb	-1.5468439
98	0x3e6fbf17	0.23412739
99	0xbecc62ba	-0.39919072
100	0x3e9bc449	0.3042319
101	0xbda9c4d5	-0.08289496
102	0xbfd7a79c	-1.6848025
103	0x3eb7fedb	0.35936627
104	0xbf96428b	-1.1739057
105	0xbebb57dd	-0.36590472
106	0x401d7543	2.460282
107	0x3eaa1878	0.33221793
108	0xbf03adca	-0.51437056
109	0xbc78fde6	-0.015197253
110	0xbea9a20a	-0.33131438
111	0x3edfbf10	0.43700457
112	0xbf2f5e1d	-0.6850298
113	0x3ef3329c	0.4749955
114	0x3ee22e33	0.44175872
115	0xbf149d4d	-0.5805252
116	0x3ec214bc	0.37906444
117	0xbee05380	-0.43813705
118	0xbf76422f	-0.9619474
119	0xbf9ee8ea	-1.241483
120	0x3fdab1b9	1.7085487
121	0xbe050ec1	-0.1299391
122	0x3fa1aca7	1.2630814
123	0x3c14d65e	0.009084312
124	0x3f24f193	0.64431113
125	0xbf2dbf97	-0.6787047
126	0x3f2f0e24	0.6838095
127	0xbeafb90c	-0.34320867
128	0x3f21c65c	0.631933
129	0xbf545755	-0.8294576
130	0x3ed02a41	0.40657237
131	0x3e67e9cf	0.22647785
132	0x3ee219d1	0.4416032
133	0x3f358b49	0.7091566
134	0xc007e0ae	-2.1230884
135	0x3f198553	0.5996906
136	0xbe6211c0	-0.22077084
137	0xbebbd3b4	-0.36684954
138	0x3ec94b58	0.39315295
139	0xbe8f9892	-0.2804609
140	0x3fbd1f94	1.4775262
141	0x3eb0480d	0.3442997
142	0x3f3a45f4	0.7276299
143	0xbf904811	-1.1271993
144	0xbf9efd11	-1.242098
145	0xbf0669ab	-0.52504987
146	0xbf8aca81	-1.0843049
147	0xbff4198e	-1.9070299
148	0x3e804de1	0.25059417
149	0xbcb89403	-0.022531515
150	0x3f2f2a24	0.68423676
151	0xbeee01cb	-0.46485743
152	0xbf9a0ce1	-1.203518
153	0xbf8d17f9	-1.1022941
154	0xbfb72e28	-1.4310961
155	0xc00d4e14	-2.2078905
156	0x3f4415d5	0.76595813
157	0x3ec68cad	0.38779202
158	0xbedf104f	-0.4356713
159	0x3ed170f4	0.4090649
160	0x3f27cc9f	0.655466
161	0xbfe76723	-1.807835
162	0xbf027e7b	-0.50974244
163	0x3eb26c75	0.3484837
164	0x4005ff2d	2.0936997
165	0xbeb2abfc	-0.3489684
166	0x3f899118	1.0747404
167	0xbf2b28f4	-0.66859365
168	0x3f9f3ce7	1.2440461
169	0xbfa1b13e	-1.2632215
170	0x3e8d8a96	0.27644795
171	0xbe9cb8a3	-0.30609617
172	0xbf52d420	-0.8235493
173	0x3f55ec3b	0.83563584
174	0x3fbe3f9c	1.4863162
175	0xbf2edbb0	-0.68303967
176	0x3fdce0fe	1.7256162
177	0xbf8f1407	-1.1177987
178	0x4043b0f4	3.0576754
179	0x3f063d1f	0.52437013
180	0x3fb21dc0	1.3915329
181	0xbf0cf861	-0.55066496
182	0x3f823115	1.0171229
183	0xbea1a753	-0.3157297
184	0xbed81e49	-0.42210606
185	0x3d1e1e29	0.03860298
186	0x3f8856c4	1.0651479
187	0x3f06ac01	0.5260621
188	0x3e9cc1da	0.30616647
189	0xbea01796	-0.31267995
190	0x3f36cd97	0.71407455
191	0xbe18a691	-0.1490729

time_linear.weight f4 [64, 1]
0	0x3e1dba28	0.15403044
1	0x3e603a12	0.21897152
2	0xbd330e6f	-0.043714937
3	0xbf736375	-0.95073634
4	0x3f430386	0.7617725
5	0xbdbf1d5d	-0.093317725
6	0xbf11dc28	-0.56976557
7	0xbd907525	-0.070535935
8	0xbe67dbd5	-0.22642453
9	0xbf5f203d	-0.87158567
10	0xbf4bd0dc	-0.7961557
11	0x3f6de9f7	0.9293513
12	0x3e2c7663	0.16842036
13	0x3eeb6b39	0.45980242
14	0x3ea9082d	0.3301405
15	0x3e96a1db	0.2942036
16	0xbea22de1	-0.31675628
17	0x3dcca531	0.09992445
18	0x3f63ea3f	0.89029306
19	0xbe88a6b2	-0.26689678
20	0xbf2e4e46	-0.68088186
21	0x3f4eb347	0.80742306
22	0x3e032aa4	0.12809235
23	0xbdad8251	-0.084721215
24	0xbf4192e8	-0.75614786
25	0xbf809fac	-1.0048728
26	0xbeab55f4	-0.33464015
27	0x3e757546	0.23970518
28	0xbedd0cb0	-0.43173742
29	0x3f571de6	0.84029996
30	0xbdcfe3bf	-0.10150861
31	0x3f187371	0.5955115
32	0x3edf02bc	0.43556774
33	0x3f45b6ca	0.7723204
34	0x3f3ccda5	0.7375129
35	0xbe1fcdd9	-0.15605868
36	0x3f3086df	0.68955797
37	0xbf3c528c	-0.73563457
38	0xbf4a30bc	-0.7898061
39	0xbeb9204f	-0.36157462
40	0x3f524ace	0.8214539
41	0x3d24b830	0.040214717
42	0x3ec5c7a3	0.38628873
43	0x3f64a545	0.8931468
44	0xbf50eefb	-0.81614655
45	0x3f6a5c2d	0.915469
46	0x3f664d95	0.8996213
47	0x3f6cf999	0.92568356
48	0x3f524092	0.82129776
49	0x3dbded53	0.092737816
50	0xbe387d36	-0.18016514
51	0x3f611810	0.8792734
52	0x3ecba8d1	0.39777234
53	0xbf054de2	-0.52071965
54	0x3f05fe10	0.52340794
55	0xbd023cbb	-0.0317962
56	0x3f06aac6	0.5260433
57	0xbf6ea44f	-0.93219465
58	0x3f1fb8f7	0.6239161
59	0x3f5cf1d7	0.8630652
60	0xbf5c5840	-0.8607216
61	0xbf7f8731	-0.9981566
62	0x3e9f69db	0.3113545
63	0xbeb724b7	-0.357702

time_linear.bias f4 [64]
0	0x3f22f069	0.63648087
1	0x3f5777ba	0.84167063
2	0x3ec177fd	0.37786856
3	0x3e530f35	0.2061127
4	0xbe9c70b3	-0.30554733
5	0xbf2d62a9	-0.6772867
6	0xbef901da	-0.48634225
7	0xbf0a3adf	-0.5399608
8	0xbd4df5f2	-0.05028338
9	0x3e98e5e9	0.29862908
10	0x3ec0d7aa	0.3766454
11	0x3f53ecc4	0.8278315
12	0x3f1b3453	0.60626715
13	0xbefc4234	-0.4926926
14	0xbec62d61	-0.38706496
15	0x3d0732b9	0.033007357
16	0xbf0ecd65	-0.5578216
17	0xbea28b32	-0.31746823
18	0xbf7bd481	-0.9837113
19	0xbd457b3f	-0.04821324
20	0x3efac5fc	0.48979175
21	0xbeeb1a59	-0.4591854
22	0xbf1436e0	-0.5789623
23	0x3e1c0b58	0.15238702
24	0xbf0ac88d	-0.54212266
25	0x3e98d061	0.2984648
26	0x3f14d4bf	0.58137125
27	0x3f45cae8	0.77262735
28	0xbe476d89	-0.19475378
29	0xbf1ff7d7	-0.6248755
30	0x3f2eb72f	0.68248266
31	0xbf5137b4	-0.8172562
32	0x3f4b7a79	0.79483753
33	0x3f6db43f	0.9285316
34	0xbf337834	-0.7010529
35	0x3e1a0d89	0.15044226
36	0xbe9bc996	-0.30427235
37	0xbf589017	-0.84594864
38	0x3f2fd84e	0.6868943
39	0x3efe220b	0.49635348
40	0xbf589a42	-0.8461038
41	0x3f0fa31b	0.56108254
42	0x3f1976d6	0.59946954
43	0xbf42d8f5	-0.761123
44	0xbe114821	-0.14187671
45	0xbf0c9105	-0.5490878
46	0x3d592629	0.053014908
47	0x3e494949	0.19656862
48	0x3f5792ba	0.8420826
49	0xbee4b873	-0.44671974
50	0x3db87845	0.090073146
51	0xbf469dd5	-0.7758458
52	0x3efa2568	0.48856664
53	0x3ee37dc2	0.44431883
54	0x3f0d82e6	0.5527786
55	0xbeb6d6fc	-0.35710895
56	0x3f46e058	0.7768607
57	0x3ea3ae9f	0.31969163
58	0x3f163f7a	0.5869061
59	0x3f281d99	0.6567016
60	0xbf05f8bb	-0.5233266
61	0x3e658281	0.22413065
62	0xbf2a0e54	-0.66428113
63	0x3d52e232	0.051485248

attn.Wq.weight f4 [64, 64]
0	0x3dd18341	0.10230113
1	0x3c873093	0.016502654
2	0xbd6ab942	-0.057305582
3	0x3d5d9247	0.05409458
4	0x3d5ddc2d	0.054165054
5	0xbe2b7f47	-0.16747771
6	0xbd1329c1	-0.03592849
7	0xbdf19954	-0.11796823
8	0x3d87c5d5	0.0662953
9	0xbdf9bb22	-0.12193896
10	0xbc84c9be	-0.01620948
11	0xbd3d8824	-0.046272412
12	0x3be56c7b	0.0070014573
13	0xbc4f3b6e	-0.0126484465
14	0xbe42efec	-0.19036835
15	0xbc9e55a7	-0.019327952
16	0x3da05011	0.078277715
17	0x3be38bd6	0.00694416
18	0x3d8b923c	0.06815001
19	0xbe8acee1	-0.2711096
20	0x3e0ec6a4	0.13942963
21	0xbe30642f	-0.17225717
22	0x3c5b4d5b	0.013385142
23	0xbde22c7f	-0.11043643
24	0x3cef8b54	0.029241242
25	0x3bea59e4	0.007151829
26	0xbc1a7c65	-0.009429072
27	0xbd80f73b	-0.062971555
28	0x3d7882c7	0.060671594
29	0xbe7449e1	-0.23856308
30	0xbdae91a6	-0.08523874
31	0x3e35a803	0.17739873
32	0xbd951b9a	-0.07280655
33	0x3d8dcca4	0.06923798
34	0xbd6e94cf	-0.058247384
35	0xbc47f92f	-0.012205406
36	0x3dbabbae	0.09117828
37	0x3c6cce76	0.014453521
38	0xbd1c3c8d	-0.038143683
39	0x3e0b4d74	0.13603765
40	0x3d47e04e	0.048797898
41	0xbdbe6a78	-0.09297651
42	0x3e1287ab	0.14309566
43	0x3de33573	0.11094179
44	0xbe53c5b6	-0.2068089
45	0xbe4af575	-0.19820197
46	0x3c27a5b9	0.010232382
47	0xbd89c553	-0.0672709
48	0x3de222c5	0.11041788
49	0xbe620a2e	-0.22074196
50	0x3db8ef4d	0.09030018
51	0x3d9c566b	0.076336704
52	0xbd07456a	-0.033025183
53	0xbc183e24	-0.009292159
54	0xbd8ba422	-0.06818415
55	0xbe064d54	-0.13115436
56	0x3d2ccab6	0.042185508
57	0xbbdea562	-0.0067946175
58	0x3db969b1	0.09053362
59	0x3c7c52e9	0.015400627
60	0x3d6af143	0.05735899
61	0x3dbe58b0	0.092942595
62	0x3d8e5925	0.06950597
63	0x3dba9368	0.09110147
64	0x3dcad51a	0.09903927
65	0xbb55a437	-0.00325991
66	0x3d232e00	0.03983879
67	0x3dba2578	0.09089178
68	0x3e2fbdbe	0.17162225
69	0xbe260171	-0.16211487
70	0xbe0df71f	-0.138638
71	0xbd8814fb	-0.06644627
72	0x3d6ec172	0.058289953
73	0xbcd07267	-0.025445176
74	0x3d8583c3	0.06519272
75	0xbe091329	-0.13386215
76	0xbd97980c	-0.074020475
77	0xbdc72c99	-0.09725303
78	0xbe1bb195	-0.15204461
79	0xbe480ccc	-0.19536132
80	0x3e01ebac	0.12687558
81	0xbe3a5e2f	-0.1819999
82	0x3cfa7be2	0.03057665
83	0xbc9f660e	-0.019457843
84	0x3de019a3	0.1094239
85	0xbe3d05c9	-0.18459238
86	0xbd8a0a46	-0.06740241
87	0xbda5361e	-0.08066963
88	0xbdd646a5	-0.10462693
89	0x3dcd9c82	0.10039617
90	0x3d597ed4	0.05309947
91	0xbc275bca	-0.010214755
92	0x3d82052a	0.06348641
93	0xbe66e769	-0.22549213
94	0x3c9835ab	0.018580278
95	0x3d9bb200	0.0760231
96	0xbdab5ee2	-0.08367707
97	0xbe20a7be	-0.15688989
98	0xbdc665a5	-0.09687356
99	0xbdf4e906	-0.11958508
100	0x3e4a0c7e	0.19731328
101	0x3cca9646	0.02472986
102	0x3be82d59	0.007085484
103	0x3d94c229	0.072635956
104	0x3dcd8fed	0.10037217
105	0xbdb20cb4	-0.08693829
106	0xbcd19096	-0.02558164
107	0x3e488efd	0.19585796
108	0xbe398a98	-0.18119276
109	0xbdbc76ef	-0.09202372
110	0xbc54308a	-0.012951026
111	0xbcd0004a	-0.025390763
112	0x3d7c4160	0.061585784
113	0xbe35fb22	-0.17771581
114	0x3d23eb1c	0.04001914
115	0xbc8ce1a3	-0.017197436
116	0x3ce1b476	0.02755187
117	0xbd9e2a97	-0.07722967
118	0x3cfa95ca	0.030589003
119	0xbdfb3050	-0.12265074
120	0x3d401e12	0.046903677
121	0xbca0f06f	-0.019645898
122	0x3de0e4a5	0.109811105
123	0xbdfda1c0	-0.12384367
124	0x3e0a06f4	0.13479215
125	0x3d985c0c	0.074394315
126	0x3d191b77	0.03737971
127	0x3d2956b2	0.041342445
128	0xbe7e4c1f	-0.24833725
129	0xbe0e9bbb	-0.13926594
130	0x3e27fed2	0.164058
131	0xbd970637	-0.07374232
132	0x3dacd6ab	0.08439382
133	0x3c0d2b25	0.0086162435
134	0x3ddb7f8e	0.107176885
135	0x3e4ca77a	0.19985762
136	0x3cf2fd1e	0.029661711
137	0x3d08d300	0.03340435
138	0x3e451231	0.1924522
139	0xbe1ff759	-0.156217
140	0xbd511a44	-0.05105044
141	0xbd376da8	-0.04478231
142	0x3e59aaa1	0.21256496
143	0xbd0027fe	-0.03128814
144	0xbd884ff8	-0.06655878
145	0xbe047d54	-0.12938434
146	0xbe0ae74f	-0.135648
147	0x3e61d8dc	0.22055382
148	0xbdd453b6	-0.10367529
149	0xbc4840da	-0.012222493
150	0xbe62fc62	-0.22166589
151	0x3da9f790	0.08299172
152	0x3e022c52	0.1271222
153	0xbe06c5ea	-0.13161436
154	0x3de7abc6	0.1131206
155	0x3d8c2885	0.06843666
156	0x3c35cbcf	0.011095955
157	0x3d54e180	0.051972866
158	0xbe157e81	-0.14599039
159	0xbc887204	-0.01665593
160	0xbdfa654d	-0.12226353
161	0x3d49498a	0.049142398
162	0x3e0ea5c4	0.13930422
163	0xbe0cf093	-0.13763647
164	0xbc5c925a	-0.013462627
165	0xbe02a333	-0.12757568
166	0xbd94a6c4	-0.072583705
167	0xbe44c711	-0.19216563
168	0xbdfb660a	-0.12275322
169	0xbd37e6a2	-0.044897683
170	0xbe0359b6	-0.12827191
171	0x3e01c6fe	0.12673566
172	0x3e06c372	0.13160494
173	0x3d1f125b	0.038835865
174	0x3e5acc61	0.21367027
175	0xbd818bc7	-0.063254885
176	0x3ce16f9a	0.027519036
177	0x3e16a68e	0.14711973
178	0xbe0c25c3	-0.1368628
179	0xbd5ef614	-0.054433897
180	0x3e011578	0.12605846
181	0x3d8f6e9e	0.070035204
182	0xbd50ec99	-0.051006887
183	0x3d437f2b	0.0477287
184	0xbe36bc27	-0.17845212
185	0xbae487fe	-0.0017435548
186	0xbea266cb	-0.3171905
187	0x3dbdf04c	0.092743486
188	0x3c325eaf	0.010886832
189	0xbdc1d191	-0.094638
190	0xbe003afc	-0.12522501
191	0x3d8f75db	0.07004901
192	0xbe562550	-0.20912671
193	0xbc68113a	-0.014164263
194	0x3d917c0a	0.07103737
195	0x3d9369e1	0.07197929
196	0xbe24eaa8	-0.1610514
197	0xbd4ea51d	-0.050450433
198	0x3d5f050d	0.054448176
199	0x3df0ffc4	0.117675334
200	0x3de7267e	0.11286639
201	0x3dc07e35	0.09399072
202	0x3d995d25	0.07488469
203	0xbbf705c0	-0.0075385273
204	0x3e04262f	0.12905191
205	0x3d10ef56	0.0353845
206	0x3da719e1	0.08159233
207	0x3c355ec9	0.011069962
208	0xbdace9a0	-0.08442998
209	0x3df412c7	0.11917644
210	0xbd45bb16	-0.048274122
211	0x3e4371a9	0.19086327
212	0xbdb76e5c	-0.08956596
213	0x3d9bae28	0.07601577
214	0xbe4cac2f	-0.19987558
215	0x3d932c2f	0.07186162
216	0x3c92ae5d	0.017905409
217	0x3cd145f6	0.025546055
218	0x3d72e5e9	0.05930129
219	0x3d0a8e13	0.0338269
220	0xbda2da53	-0.07951798
221	0x3e4023b5	0.18763621
222	0x3dbb7c48	0.09154564
223	0xbdc5b68b	-0.09653958
224	0xbd2f357a	-0.04277561
225	0xbdc971e3	-0.09836175
226	0x3e080d51	0.1328633
227	0x3d22ae3f	0.039716955
228	0xbd207d05	-0.039181728
229	0x3d9ddd67	0.07708245
230	0x3da7a5a2	0.08185889
231	0x3d6d544b	0.057941716
232	0xbe24c7ab	-0.16091792
233	0x3d3bf517	0.045888033
234	0x3d213e9b	0.039366346
235	0xbdac652b	-0.08417734
236	0x3dec5f1f	0.115415804
237	0x3d75f469	0.06004754
238	0x3da1f5fa	0.079082444
239	0xbdad7940	-0.08470392
240	0xbd815183	-0.06314375
241	0x3e27433e	0.16334245
242	0xbd3d5193	-0.046220373
243	0xbd758bb5	-0.059947688
244	0xbde33d67	-0.11095696
245	0x3d2ad4e5	0.04170694
246	0x3da05674	0.078289896
247	0x3d93d598	0.07218474
248	0xbe00f4c8	-0.12593377
249	0xbc20f7b2	-0.00982468
250	0xbe804db5	-0.25059286
251	0x3c4ad5ec	0.0123801045
252	0xbd9874d6	-0.0744416
253	0xbd95e1d4	-0.07318464
254	0xbcfc9afb	-0.03083562
255	0xbc6e5966	-0.014547681

attn.Wq.bias f4 [64]
0	0xbd41ebfa	-0.047344185
1	0xbd951b0c	-0.072805494
2	0x3d877aa1	0.066151865
3	0x3d4cd72a	0.050009884
4	0x3abd643b	0.0014449427
5	0x3ca66eac	0.020316444
6	0x3d898fb4	0.06716862
7	0xbdb6eddc	-0.08932087
8	0xbcd64811	-0.02615741
9	0x3ba0f2f4	0.004911775
10	0x37edffda	2.8371742e-05
11	0xbd6d13aa	-0.05788008
12	0x3de46f45	0.111540355
13	0x3ca929dc	0.020649843
14	0x3d8595c9	0.0652271
15	0x3d4967cb	0.04917125
16	0x3e0657fc	0.13119501
17	0x3e199b72	0.15000704
18	0x3e397973	0.18112735
19	0x3d8cd937	0.06877368
20	0x3d604593	0.05475385
21	0x3e080808	0.13284314
22	0x3e2c61d6	0.16834196
23	0x3d2c7e22	0.042112477
24	0xbe3f8a73	-0.18705158
25	0xbe2edcb6	-0.17076382
26	0xbdf32802	-0.11872865
27	0xbd4c37cb	-0.049857896
28	0x3e092376	0.13392434
29	0xbdab3ae4	-0.08360842
30	0x3e0ab633	0.13546066
31	0xbe2b7005	-0.16741951
32	0x3d8f2066	0.069886014
33	0x3c4a7b55	0.012358506
34	0x3c05493e	0.008135138
35	0xbd6e424e	-0.0581687
36	0x3d555c75	0.052090127
37	0x3d7a9dc3	0.06118561
38	0x3cf53f5c	0.029937439
39	0xbd0bc3da	-0.034122325
40	0x3960f971	0.00021455229
41	0xbc2fc894	-0.010728974
42	0x3dae06cd	0.08497391
43	0x3ce942c1	0.028474214
44	0x3cb07f08	0.021544948
45	0xbd707aa5	-0.058710713
46	0x3d03cbca	0.03217677
47	0x3c6434f8	0.013928644
48	0xbdd3c46c	-0.10340199
49	0xbddd1c79	-0.10796446
50	0xbe073f0f	-0.13207649
51	0x3df0952b	0.117472015
52	0xbdc474e9	-0.09592611
53	0xbde74d63	-0.11294057
54	0x3dc279f6	0.094959185
55	0x3e0a8094	0.13525611
56	0xbd7ba67f	-0.06143808
57	0x3e03331a	0.12812462
58	0x3c2b8021	0.01046756
59	0x3d890afe	0.0669155
60	0xbdf622ab	-0.12018331
61	0x3d5e7f1a	0.054320432
62	0x3df93a31	0.12169302
63	0x3d9254b2	0.071450606

attn.Wk.weight f4 [64, 64]
0	0xbd5e5623	-0.054281365
1	0x3da8eca8	0.082482636
2	0x3d7f744c	0.06236677
3	0xbe2dd89f	-0.16977166
4	0x3dd9fa3f	0.10643434
5	0x3daefac0	0.085439205
6	0x3cca547f	0.024698494
7	0x3d2803cf	0.041019257
8	0xbe4109cc	-0.18851393
9	0x3e1f0197	0.1552795
10	0xbdaad9d4	-0.08342329
11	0xbd20501c	-0.0391389
12	0x3c81c98d	0.015843177
13	0xbe362cdb	-0.17790549
14	0x3daa95d9	0.083293624
15	0x3ddfd371	0.10929001
16	0xbd94d6ee	-0.07267557
17	0x3c11982c	0.008886378
18	0x3df21a34	0.11821404
19	0x3e0d7eed	0.1381795
20	0xbe4d82d9	-0.20069446
21	0xbe07fa56	-0.1327909
22	0x3d80d070	0.06289756
23	0xbca1adb8	-0.019736156
24	0x3e112378	0.14173687
25	0xbdf0bfea	-0.11755355
26	0x3debec46	0.11519675
27	0x3d0f7025	0.03501906
28	0x3e5430c4	0.20721728
29	0xbccf0ccb	-0.025274655
30	0xbdd31a3a	-0.10307737
31	0x3da80ae9	0.08205206
32	0x3c730376	0.014832368
33	0xbe0d4abb	-0.13798039
34	0xbddc0b0d	-0.10744295
35	0xbe47d08c	-0.19513148
36	0xbe10ec1e	-0.14152572
37	0xbe36cd6e	-0.17851803
38	0x3d870c71	0.0659417
39	0x3c86776b	0.016414365
40	0x3d07c462	0.03314627
41	0xbe239cad	-0.15977736
42	0xbacb41e9	-0.0015507314
43	0x3e59485b	0.21219008
44	0x3c5b0ee1	0.013370247
45	0xbe0c56bf	-0.13704966
46	0x3cc30aef	0.023808924
47	0x3db822f3	0.08991041
48	0xbcd62099	-0.02613859
49	0x3c3d9c71	0.011572943
50	0x3d4a4717	0.049384203
51	0x3c79f6a2	0.015256556
52	0x3d960d2e	0.073267326
53	0xbe0756e4	-0.1321674
54	0x3cb00fb8	0.02149187
55	0x3d0eaeda	0.03483472
56	0x3e036276	0.12830529
57	0xbe2a12ab	-0.16608684
58	0xbb8e19b0	-0.0043365583
59	0xbb97e30c	-0.0046352204
60	0xbdec2796	-0.11530988
61	0xbd8d9bd0	-0.069144845
62	0x3e37a0c7	0.17932425
63	0xbe384cd4	-0.17998058
64	0xbd569a96	-0.05239352
65	0x3decb621	0.11558176
66	0x3cc5ed0e	0.024160888
67	0xbe0ddc5f	-0.13853596
68	0x3e09185e	0.13388202
69	0xbe3c9442	-0.18415931
70	0x3d43d54d	0.04781084
71	0xbdf8f6f9	-0.12156481
72	0xbe20e058	-0.1571058
73	0xbbc35c88	-0.0059619583
74	0xbe84477f	-0.25835797
75	0x3ddf01e3	0.10889032
76	0xbe095212	-0.13410214
77	0xbded8b87	-0.11598878
78	0xbdd8664a	-0.10566385
79	0x3cf7b77e	0.030238863
80	0xbd9d0304	-0.07666591
81	0x3d992593	0.0747787
82	0x3e5b755c	0.21431488
83	0xbcb16731	-0.02165565
84	0xbd0b2e08	-0.033979446
85	0xbccd7df9	-0.025084483
86	0x3ccd9eed	0.025100196
87	0x3df85d41	0.12127162
88	0x3d827a72	0.06371011
89	0xbe6881b1	-0.22705723
90	0x395631be	0.00020427161
91	0x3ddc3b3c	0.107534856
92	0x3cc49888	0.023998514
93	0xbca29e3f	-0.019850848
94	0xbd5746d4	-0.05255778
95	0x3d628c67	0.05530968
96	0x3d79b18e	0.060960345
97	0xbd6e7612	-0.05821807
98	0x3cf49450	0.029855877
99	0xbe3f5271	-0.18683793
100	0xbd5160fd	-0.051117886
101	0x3c9d0175	0.019165734
102	0xbe1f0c12	-0.15531948
103	0x3e258484	0.16163832
104	0xbdd90dce	-0.10598336
105	0xbe285c2e	-0.16441414
106	0x3d8f8b8e	0.0700904
107	0x3d6266e7	0.055273917
108	0x3db05351	0.08609641
109	0xbe038583	-0.128439
110	0xbdd0e44c	-0.10199794
111	0x3db2ce06	0.08730702
112	0xbdf866ff	-0.1212902
113	0x3d48aa64	0.048990622
114	0xbdc6a207	-0.09698873
115	0xbd85e0d7	-0.065370254
116	0x3e27df4f	0.16393779
117	0xbdac68d5	-0.084184326
118	0xbe357bcc	-0.17723006
119	0xbcaacefc	-0.020850651
120	0x3c373079	0.01118099
121	0xbe53f2af	-0.20698045
122	0x3e172507	0.14760219
123	0x3e01d8a0	0.12680292
124	0xbe15e4ab	-0.14638011
125	0xbd940f3b	-0.072294675
126	0x3e392f02	0.18084338
127	0xbe6aa40c	-0.22914141
128	0xbbc90a20	-0.00613524
129	0x3e03419a	0.12817994
130	0xbe5b4d2d	-0.21416159
131	0x3e03d903	0.12875752
132	0xbbd7be2f	-0.006583951
133	0xbe215251	-0.15754057
134	0x3e640451	0.22267272
135	0xbe848a94	-0.25886977
136	0x3b11e24f	0.0022260135
137	0xbd8c7d61	-0.06859852
138	0x38ea8af9	0.00011183875
139	0xbe84c0a8	-0.25928235
140	0x3bf7c54c	0.0075613614
141	0x3a6dd252	0.00090721727
142	0xbdb4f472	-0.08835687
143	0xbb66cf99	-0.0035218953
144	0x3e3c611e	0.18396422
145	0xbd067fc7	-0.0328367
146	0x3c89ba18	0.01681237
147	0x3e6679e7	0.2250744
148	0xbd05d2ee	-0.03267186
149	0xbba18019	-0.0049286005
150	0xbc9dfc06	-0.019285213
151	0xbd4f4d20	-0.05061066
152	0x3d0d4829	0.034492645
153	0x3dde7e51	0.10863937
154	0x3e243cf2	0.16038874
155	0x3d9d5909	0.07682998
156	0x3b81ea40	0.0039646924
157	0xbe7b1c43	-0.245225
158	0x3e0de2e1	0.13856079
159	0x3e1337fc	0.14376825
160	0xbdcdeb8c	-0.100546926
161	0x3e11cd09	0.14238371
162	0x3e1703e4	0.14747578
163	0x3e19f855	0.15036137
164	0xbd50ed09	-0.051007304
165	0x3e82e372	0.25564152
166	0xbe17d93d	-0.14828964
167	0xbcd989e5	-0.026555011
168	0xbe22cce1	-0.15898468
169	0x3e2a9353	0.16657762
170	0xbdc822f8	-0.09772295
171	0xbbde1164	-0.0067769755
172	0xbd1fb67d	-0.038992394
173	0xbdd0f951	-0.10203803
174	0xbe8b1207	-0.2716219
175	0x3cd0c942	0.025486592
176	0xbc80cc7e	-0.01572251
177	0x3e199986	0.14999971
178	0xbdfa30ea	-0.12216361
179	0x3d09f50d	0.033680964
180	0xbe4eb90c	-0.20187777
181	0x3e4055f3	0.18782787
182	0xbe2865e2	-0.16445115
183	0xbe38eef1	-0.18059899
184	0x3e100b20	0.14066744
185	0x3c4b227d	0.012398359
186	0xbc849407	-0.016183866
187	0xbe772959	-0.24136867
188	0x3e88650c	0.26639593
189	0x3d931f0f	0.07183658
190	0xbd8f052f	-0.069834106
191	0x3ca6eef1	0.020377608
192	0x3dd3594f	0.10319769
193	0xbd4fdce8	-0.050747782
194	0x3d4ad30b	0.049517673
195	0x3d82d121	0.063875444
196	0xbbf4c37b	-0.007469592
197	0xbda6d5f9	-0.08146281
198	0x3ddc9be4	0.10771921
199	0xbd8257df	-0.06364416
200	0xbd60f4bf	-0.054920908
201	0xbd8f044d	-0.06983242
202	0x3e124e96	0.1428779
203	0xbcd3f637	-0.02587424
204	0xbda993da	-0.082801536
205	0x3c13b44c	0.009015154
206	0xbdae2696	-0.085034534
207	0xbc5338d0	-0.012891963
208	0x3dd24ddf	0.10268759
209	0x3da4962f	0.08036458
210	0xbd027750	-0.031852067
211	0xbd1bec35	-0.03806706
212	0x3d9bbca5	0.076043405
213	0x3ca2e8d7	0.019886417
214	0x3d91f575	0.07126895
215	0xbe00cabc	-0.12577337
216	0xbddef3a9	-0.10886318
217	0x3c940738	0.018069848
218	0x3e004720	0.12527132
219	0x3c96b91a	0.01839881
220	0xbddc56d6	-0.1075875
221	0xbc441780	-0.011968493
222	0x3a9b3307	0.0011840769
223	0x3d4b12ec	0.049578592
224	0xbd0a1b68	-0.033717543
225	0xbda880e6	-0.082277104
226	0xbd218725	-0.039435524
227	0x3d43f128	0.047837406
228	0x3d8a622e	0.067570075
229	0x3d1e2092	0.03860528
230	0xbd8831f4	-0.06650153
231	0x3ddc1933	0.10746994
232	0x3d209f53	0.039214443
233	0xbd5a7707	-0.05333617
234	0x3b4beef3	0.0031117767
235	0x3d7fc2ef	0.062441763
236	0xbd061084	-0.032730594
237	0x3cdcf0d1	0.026970299
238	0xbe13c74e	-0.14431497
239	0xbe12dc9f	-0.14341973
240	0xbd335a54	-0.043787315
241	0x3cd63fd5	0.026153484
242	0xbdd7be49	-0.10534341
243	0xbb295390	-0.002583716
244	0xbcf3cc06	-0.029760372
245	0x3d71f38d	0.05907016
246	0xbdf9d491	-0.12198747
247	0x3d9411c3	0.0722995
248	0xbdba66e0	-0.09101653
249	0x3e38425a	0.17994061
250	0xbe28c5e0	-0.16481733
251	0xbd529e72	-0.051420636
252	0xbae0fb80	-0.0017164797
253	0x3d046a08	0.03232768
254	0xbc7260d9	-0.014793598
255	0xbd7837af	-0.06059998

attn.Wk.bias f4 [64]
0	0xbe09e04d	-0.1346447
1	0xbd40cc0b	-0.04706959
2	0xbe0b5531	-0.13606717
3	0x3da1cb9e	0.07900165
4	0x3b1c05cb	0.0023807164
5	0x3db0e69a	0.08637734
6	0x3dd62cab	0.104577385
7	0x3c5c3ca7	0.013442195
8	0x3dbd1f00	0.092344284
9	0xbdda182f	-0.10649144
10	0xbde62bb7	-0.11238807
11	0xbdab6767	-0.08369332
12	0xbd352000	-0.04421997
13	0x3e0928db	0.13394491
14	0x3d218e30	0.03944224
15	0xbbf653c6	-0.007517311
16	0xbe17bb4b	-0.1481754
17	0xbdbdefa9	-0.09274227
18	0x3e1eee02	0.1552048
19	0xbcd0f8c3	-0.025509244
20	0x3bf2a365	0.007404732
21	0x3e1c3619	0.15255012
22	0x3d5f4e00	0.054517746
23	0xbd1b01fa	-0.037843682
24	0xbdc565e0	-0.09638572
25	0xbd5bf9c4	-0.053704992
26	0x3e80ac10	0.25131273
27	0x3c851fcb	0.016250512
28	0xbe2bbeb4	-0.16771966
29	0xbe4dddee	-0.2010419
30	0xbd96a041	-0.07354785
31	0xbeac0d09	-0.33603695
32	0x3c251256	0.010075172
33	0x3d996fd4	0.07492033
34	0x3d735cba	0.059414603
35	0x3d9b64cf	0.07587587
36	0xbcd50d59	-0.026007341
37	0xbe2c2342	-0.16810325
38	0x3c54f24b	0.01299722
39	0xbccb1fbc	-0.024795406
40	0x3e034fcc	0.12823409
41	0xbc4b64c8	-0.012414165
42	0xbd72fc2a	-0.059322514
43	0x3d81b106	0.06332593
44	0x3c7cef30	0.015437886
45	0x3df6e0d9	0.12054605
46	0xbca78919	-0.020451115
47	0xbd52fd3f	-0.051511046
48	0xbda9560f	-0.082683675
49	0x3d102c23	0.035198342
50	0x3e649a88	0.22324574
51	0xbdc1229f	-0.094304316
52	0x3df74a80	0.120747566
53	0x3de33c9c	0.11095545
54	0x3caf3298	0.02138643
55	0x3dd5f9c7	0.10448032
56	0xbe04a196	-0.12952265
57	0x3e1a9fcc	0.1510002
58	0x3e64fc9f	0.22361992
59	0x3e377d25	0.17918833
60	0x3cc03976	0.0234649
61	0xbe122e26	-0.14275417
62	0xbc2e6c9a	-0.01064601
63	0xbd2eb7e6	-0.042655848

attn.Wv.weight f4 [64, 64]
0	0xbced2c58	-0.028951809
1	0x3e0d0060	0.13769674
2	0xbcef42ee	-0.02920672
3	0xbe0c5d88	-0.13707554
4	0x3d8b7e6a	0.06811221
5	0xbe014821	-0.12625171
6	0x3d6882da	0.056765415
7	0xbc7ddbc6	-0.015494293
8	0x3cdf3f14	0.027251758
9	0xbce1f45b	-0.027582338
10	0x3e1cd5c7	0.15315925
11	0x3e2c5554	0.16829425
12	0x3da3d2f0	0.079992175
13	0x3d060908	0.032723457
14	0x3d548b9d	0.051890958
15	0xbdc8db12	-0.09807409
16	0xbd824565	-0.06360892
17	0x3d01bd3f	0.03167462
18	0xbdfc40dd	-0.12317059
19	0x3d062743	0.032752287
20	0xbba9084a	-0.005158459
21	0x3cc3aec0	0.023887038
22	0x3d31d20f	0.043413218
23	0x3e20abb9	0.15690507
24	0xbc02d081	-0.0079842815
25	0xbd91e8cf	-0.07124483
26	0x3ca8e7d6	0.02061836
27	0x3e12bbb7	0.1432942
28	0x3d0ff252	0.035143204
29	0x3d89c14c	0.067263216
30	0x3de967fc	0.113967866
31	0xbc917b25	-0.017758915
32	0x3da3562c	0.0797542
33	0x3d998571	0.07496155
34	0xbddb3d93	-0.10705104
35	0x3e1fe6a6	0.15615329
36	0x3dd973ee	0.10617815
37	0x3d8c5117	0.06851404
38	0x3e0926c5	0.13393696
39	0x3e0eceb9	0.13946046
40	0xbe37f69f	-0.17965172
41	0x3c38ad0c	0.011271726
42	0x3d84cc3e	0.064842686
43	0x3bb26fe2	0.0054454664
44	0x3d16b597	0.03679427
45	0xbd6e5148	-0.058182985
46	0x3e1ff978	0.15622509
47	0xbcb189bc	-0.021672122
48	0xbd1f5d34	-0.038907245
49	0xbe0eee1a	-0.13958016
50	0x3e37ea1b	0.17960398
51	0xbe1499f7	-0.14511858
52	0xbd78a35a	-0.06070266
53	0x3dd7efac	0.10543761
54	0x3c8daaee	0.01729342
55	0xbd86820e	-0.06567775
56	0x3d1ebb78	0.038753003
57	0x3dbb2073	0.091370486
58	0x3c45fff5	0.012084951
59	0xbd86cc7d	-0.06581972
60	0xbdcfdfc5	-0.101501025
61	0x3d8d8d6b	0.06911739
62	0x3d3bcf07	0.045851734
63	0xbd7e92a7	-0.062151577
64	0x3d45caad	0.04828899
65	0x3da5538a	0.080725744
66	0x3ce3a1d1	0.027787121
67	0xbcf04b12	-0.029332671
68	0xbd111e7e	-0.03542947
69	0xbcf16002	-0.029464725
70	0xbb8b7582	-0.0042559514
71	0xbd1b0831	-0.03784961
72	0xbe126c2b	-0.14299075
73	0x3b367fcf	0.0027847176
74	0xbcce5f47	-0.025191916
75	0xbd6b7403	-0.057483684
76	0x3dca0baa	0.09865506
77	0xbe00c37e	-0.12574574
78	0x3d215bcf	0.039394196
79	0xbd6b3452	-0.057422943
80	0xbdbf05e2	-0.09327294
81	0x3c8913ae	0.016733017
82	0xbc0be551	-0.00853856
83	0x3d2692c7	0.04066732
84	0x3b75b78e	0.003749344
85	0x3d4142af	0.047182735
86	0x3cf4811d	0.029846722
87	0x3e4bed91	0.19914843
88	0x3ce9fd1e	0.028563078
89	0xbe0ce713	-0.13760023
90	0x3e28bb97	0.1647781
91	0x3ddb3a40	0.1070447
92	0x3cced196	0.025246423
93	0x3cb25f22	0.021773878
94	0xbc9c8c99	-0.019110011
95	0xbe1dfc9f	-0.15428399
96	0x3d2ff485	0.0429578
97	0xbd181a13	-0.03713424
98	0xbdde354e	-0.10850011
99	0xbd65363f	-0.055959936
100	0x3badc073	0.0053024828
101	0x3d6c83d6	0.057742916
102	0x3da496bb	0.08036562
103	0x3d961ad7	0.07329338
104	0xbdc17aff	-0.09447288
105	0xbd0115f1	-0.031515066
106	0x3e0ed242	0.13947394
107	0x3cbc6c20	0.023000777
108	0x3a9c6bb2	0.0011933951
109	0xbd31c22d	-0.04339807
110	0x3db570a0	0.08859372
111	0xbcab0a50	-0.02087894
112	0xbd2fd38a	-0.04292635
113	0xbe07eae9	-0.13273205
114	0x3e2291bc	0.15875906
115	0xbd8054f3	-0.06266203
116	0x3d1ab7fb	0.037773114
117	0x3e2149d3	0.15750818
118	0xbc0fbcad	-0.008773011
119	0xbd59cf37	-0.05317613
120	0x3d54bea4	0.05193962
121	0x3db2fa90	0.08739197
122	0x3e336b58	0.17521417
123	0x3cc8bb72	0.024503443
124	0xbe1b6e22	-0.15178731
125	0xbb8fd84d	-0.0043897987
126	0xbabd9627	-0.0014464305
127	0x3ddce003	0.10784914
128	0x3d4bfe6f	0.049803194
129	0x3b119ae4	0.0022217566
130	0x3e2ebccb	0.17064206
131	0xbd5f8086	-0.05456593
132	0x3d5038dd	0.05083548
133	0x3b85e16d	0.0040857107
134	0x3e1cc68e	0.15310118
135	0x3e12bb61	0.14329292
136	0xbc3830b2	-0.011242079
137	0x3ca4f49e	0.020136174
138	0xbe2a948f	-0.16658233
139	0x3cdb4db4	0.02677045
140	0xbda6b8e5	-0.081407346
141	0x3db10d67	0.086451344
142	0xbc0c9bb4	-0.008582044
143	0x3dfbd36b	0.12296184
144	0x3dd2b94d	0.102892496
145	0xbd523335	-0.051318366
146	0x3ab2e667	0.0013648988
147	0xbcd82ec6	-0.02638949
148	0xbd5d88f2	-0.05408568
149	0xbc37a08f	-0.011207714
150	0x3d3e848f	0.046513136
151	0xbbc163a4	-0.0059017707
152	0x3df50fe7	0.11965924
153	0x3e05176c	0.12997216
154	0xbe3b6bef	-0.18302892
155	0xbe1651b3	-0.14679603
156	0xbd650fa9	-0.055923138
157	0x3dcb7f3c	0.099363774
158	0xbe259aef	-0.16172384
159	0x3d5059bc	0.050866827
160	0xbe4fd82a	-0.20297304
161	0xbdeef21b	-0.11667272
162	0x3e252812	0.16128567
163	0x3d4130fd	0.04716586
164	0xbe455f2d	-0.19274588
165	0x3e087c91	0.13328768
166	0x3aac5ae7	0.001314965
167	0xbd64b9c5	-0.055841226
168	0x3d681269	0.056658182
169	0x3bcb95d7	0.0062129307
170	0xbe395fb0	-0.18102908
171	0xbce85786	-0.028362047
172	0xbc95484c	-0.01822295
173	0xbced04be	-0.028932925
174	0x3d0d6de2	0.03452862
175	0x3d43841c	0.04773341
176	0xbcc1771b	-0.023616364
177	0xbd142a91	-0.036173407
178	0xbdb2671e	-0.08711074
179	0x3d17f9a3	0.037103307
180	0xbd90c8a6	-0.07069521
181	0xbe1d015c	-0.1533255
182	0x3c80be1e	0.015715655
183	0x3e0944f1	0.13405205
184	0xbd776307	-0.060397174
185	0x3d7741b7	0.060365405
186	0xbd9fc333	-0.07800903
187	0xbe4edf75	-0.2020243
188	0x3e0f9021	0.14019825
189	0x3da7cf14	0.08193794
190	0x3dc16299	0.09442634
191	0xbd430c51	-0.047619168
192	0xbc96259c	-0.01832848
193	0x3d520781	0.051276688
194	0x3dd7358e	0.105082616
195	0x3dcdd82c	0.10050997
196	0xbd75ea02	-0.06003762
197	0xbdbe168b	-0.092816435
198	0xbd965737	-0.07340854
199	0xbd9006b5	-0.07032529
200	0xbd8d89b7	-0.06911033
201	0x3dca33ef	0.09873187
202	0xbcdcaf67	-0.026939107
203	0x3db1f60c	0.08689508
204	0x3cf8c809	0.030368822
205	0xbd9403f0	-0.072273135
206	0x3e0d8b86	0.13822755
207	0x3d935715	0.07194344
208	0x3cc048da	0.023472238
209	0xbc15d998	-0.009146117
210	0x3d6df782	0.05809737
211	0x3dd36eab	0.103238426
212	0x3d742131	0.059601966
213	0xbdd7b87b	-0.10533234
214	0xbb95eb60	-0.004575178
215	0xbd1c3734	-0.038138583
216	0x3dd97398	0.10617751
217	0x39d92ce9	0.00041422926
218	0xbcd030a4	-0.025413819
219	0x3c48f212	0.012264745
220	0x3d38f15c	0.045152053
221	0x3e0173b5	0.12641795
222	0x3cd50659	0.026004003
223	0x3d0a1b4d	0.033717442
224	0xbd8ea5b3	-0.06965198
225	0xbd24c39d	-0.040225614
226	0x3d98e076	0.074646875
227	0xbd5802f9	-0.05273721
228	0x3d8786a3	0.06617477
229	0x3d2ca42e	0.04214876
230	0x3ce6e71e	0.028186377
231	0x3dbedcdc	0.09319469
232	0x3ccc1e0e	0.024916675
233	0x3da2cb67	0.07948952
234	0x3bca4218	0.00617243
235	0xbdac3c4b	-0.084099375
236	0x3c7ec11f	0.015548973
237	0xbd220293	-0.039553236
238	0xbd46508f	-0.04841667
239	0x3bc061f2	0.005871051
240	0xbdf9173a	-0.12162633
241	0xbdb33714	-0.0875074
242	0x3dd0e1f7	0.101993494
243	0x3c31f862	0.010862442
244	0xbca4a8fd	-0.020100111
245	0xbd7f025e	-0.062258117
246	0xbe0ecd84	-0.13945585
247	0xbd84b6d6	-0.06480186
248	0xbc9f2848	-0.019428387
249	0xbddb6391	-0.1071235
250	0xbc1f93db	-0.009739841
251	0xbc9fee39	-0.019522773
252	0x3cb8f7aa	0.022579033
253	0xbd4c1d33	-0.049832534
254	0x3e0d5c53	0.1380475
255	0xbbb3c5c3	-0.0054862215

attn.Wv.bias f4 [64]
0	0x3d9d2c12	0.07674421
1	0xbc5c9971	-0.013464318
2	0x3c3bd09f	0.011463313
3	0x3cbddfbd	0.023177976
4	0xbe05c67d	-0.13063999
5	0x3da75b66	0.0817173
6	0xbb6b9b6e	-0.0035950798
7	0xbdbe390c	-0.092882246
8	0xbe1b43ef	-0.15162633
9	0xbb7957fe	-0.0038046832
10	0xbe0ab725	-0.13546427
11	0xbdcf30c3	-0.101167224
12	0xbdb90a01	-0.09035111
13	0xbdb4914d	-0.088167764
14	0x3e13095f	0.14359044
15	0xbda436e6	-0.080182835
16	0xbad88bf1	-0.0016521198
17	0x3c728f96	0.014804741
18	0x3d832d11	0.0640508
19	0x3e28fd41	0.16502859
20	0xbd8b2514	-0.067941815
21	0xbe4f6b94	-0.20255882
22	0xbdb3d0bb	-0.087800466
23	0xbe3c7b13	-0.18406324
24	0xba902f81	-0.0011000485
25	0x3e2701fd	0.16309352
26	0xbdac6584	-0.084178
27	0x3c51d41f	0.012806921
28	0x3cd0d0c8	0.02549018
29	0x3dc48ca7	0.0959714
30	0xbd889290	-0.066685796
31	0x3dc71a12	0.097217694
32	0xbd5e28e7	-0.054238226
33	0x3cf30881	0.02966714
34	0x3cdb8646	0.026797425
35	0x3dd89ddc	0.10576984
36	0xbccb29a9	-0.024800139
37	0x3d7bddae	0.061490707
38	0xbbad252d	-0.0052839727
39	0x3e12243b	0.14271633
40	0x3d3bdd5a	0.045865394
41	0x3e1c81ee	0.15283939
42	0xbe22b4ca	-0.15889278
43	0xbd8ab2fb	-0.06772419
44	0xbd97ad51	-0.07406104
45	0xbdc4d359	-0.09610624
46	0x3de5b959	0.11216993
47	0xbd534301	-0.05157757
48	0xbdc5a1b1	-0.09649981
49	0x3b09fdf0	0.00210559
50	0xbe1b0960	-0.15140295
51	0xbe0a2cc0	-0.13493633
52	0xbd33ab05	-0.04386427
53	0xbd0b3bfc	-0.033992752
54	0x3bdcbdb1	0.00673648
55	0xbe481547	-0.19539367
56	0xbde8d49f	-0.11368679
57	0x3e3b1bf4	0.18272382
58	0xbe612d0b	-0.21989839
59	0xbe057435	-0.1303261
60	0x3dcdc047	0.100464396
61	0x3e226f88	0.15862858
62	0xbe06e540	-0.1317339
63	0x3e490cb7	0.19633757

attn.Wo.weight f4 [20, 64]
0	0xbc85539e	-0.016275223
1	0x3da72df2	0.0816306
2	0x3be97744	0.0071248133
3	0x3db90e7a	0.09035964
4	0x3d9b7010	0.075897336
5	0xbc51ae9d	-0.012797979
6	0x3d8888c6	0.066667125
7	0xbd21db76	-0.039515935
8	0x3d840258	0.064457595
9	0xbd015ee3	-0.03158463
10	0x3d281bfa	0.041042306
11	0xbd52eb02	-0.051493652
12	0xbbd7b7dc	-0.006583197
13	0xbd9b8056	-0.075928375
14	0xbbc2f8ce	-0.00595007
15	0x3bbeb209	0.0058195633
16	0xbd57420b	-0.052553218
17	0xbd16647e	-0.03671693
18	0xbde275b4	-0.11057606
19	0xbd506b94	-0.050883844
20	0x3da75d10	0.08172047
21	0x3dd588bd	0.104264714
22	0xbce1fe13	-0.027586972
23	0x3db206fe	0.0869274
24	0xbc8eb104	-0.017418392
25	0x3bf58433	0.007492566
26	0x3df67e47	0.12035804
27	0xbd13f22f	-0.036119636
28	0x3cce73c0	0.025201678
29	0xbd43ecd0	-0.047833264
30	0xba71399a	-0.0009202004
31	0x3dd476c1	0.10374213
32	0xbd8e41f8	-0.06946176
33	0x3df0010a	0.11718948
34	0x3d26e031	0.04074115
35	0x3d97aa93	0.07405581
36	0x3d907989	0.07054431
37	0xbd6e59b5	-0.05819102
38	0x3cd689f6	0.026188832
39	0xbd0cd24b	-0.03438024
40	0xbbf3148a	-0.00741822
41	0x3da5caf5	0.080953516
42	0x3d91818c	0.07104787
43	0x3e24bae2	0.16086915
44	0xbcdb1a44	-0.026745923
45	0x3d977e9d	0.073971964
46	0x3c1e3699	0.009656572
47	0xbc8e677d	-0.017383331
48	0xbda5dda4	-0.08098915
49	0xbd6ba7fd	-0.057533253
50	0xbdb827cc	-0.08991966
51	0x3db6fb38	0.08934635
52	0x3ddab493	0.10678973
53	0x3ac1c701	0.0014784039
54	0xbe059cc9	-0.1304809
55	0xbd78e9d9	-0.06076989
56	0xbcbfcf1f	-0.023414193
57	0x3cf7f39c	0.03026753
58	0x3dcc853c	0.0998635
59	0x3d758a31	0.059946243
60	0x3ca4f66c	0.020137034
61	0xbd02509a	-0.03181515
62	0x3ccf03d6	0.025270384
63	0xbdab84e8	-0.08374959
64	0x3d6771ff	0.0565052
65	0xbbe785d1	-0.0070655127
66	0x3df5f272	0.120091334
67	0xbdaba18c	-0.08380422
68	0x3d27119b	0.040788274
69	0xbd0c1b70	-0.034205854
70	0xbd3bf624	-0.045889035
71	0xbd8ca9d5	-0.068683304
72	0x3e218cc8	0.1577636
73	0x3beabbcf	0.007163502
74	0xbd349868	-0.04409066
75	0xbd7dea1a	-0.061990835
76	0x3e016910	0.12637734
77	0x3c8e7458	0.017389461
78	0xbe037c13	-0.128403
79	0xbc6b8ba7	-0.014376557
80	0xbda1a2d2	-0.07892384
81	0x3e1555f6	0.14583573
82	0xbe0c5845	-0.13705547
83	0xbe2f3e64	-0.17113644
84	0x3c2aa679	0.010415667
85	0x3cc15209	0.023598688
86	0x3db1b76e	0.086775646
87	0xbc9a7af1	-0.018857451
88	0x3da63f3f	0.08117532
89	0xbda467cc	-0.0802761
90	0x3d856163	0.06512716
91	0xbd0246bc	-0.03180574
92	0x3dbd2cbf	0.0923705
93	0xbe08b571	-0.13350464
94	0x3e4b65e2	0.19863084
95	0xbd8d6e69	-0.06905825
96	0x3dc46977	0.09590428
97	0xbe2ec880	-0.17068672
98	0xbd0ce23c	-0.03439544
99	0xbd0a617b	-0.03378437
100	0xbd7dc6bb	-0.061957102
101	0x3bf5f321	0.00750579
102	0x3b9d6f9d	0.004804565
103	0xbc23a34d	-0.009987664
104	0x3d3a3ae3	0.045466315
105	0xbe0c8e7c	-0.13726228
106	0x3d30ffdd	0.04321276
107	0x3d3ca7b5	0.046058375
108	0xbc4cb8bc	-0.012495216
109	0x3e4dc068	0.20092928
110	0xbdfafd6b	-0.12255367
111	0xbc5554d9	-0.013020718
112	0xbce0bade	-0.027432855
113	0x3de6412e	0.11242901
114	0xbdc2f4d7	-0.09519356
115	0x3dc217e7	0.09477215
116	0xbd990870	-0.074723125
117	0x3e17d4d1	0.14827277
118	0xbe00803a	-0.12548915
119	0x3d1fcde0	0.039014697
120	0x3e472a4b	0.19449727
121	0xbe3358d8	-0.1751436
122	0x3dfe0f77	0.124052934
123	0xbce6fdd9	-0.028197216
124	0xbdc59965	-0.09648398
125	0xbe02209f	-0.12707756
126	0x3d1a8109	0.037720714
127	0xbdaad16d	-0.08340726
128	0x3df6c2e7	0.120488934
129	0x3ce8bcae	0.028410282
130	0xbd9cce72	-0.07656564
131	0xbddd82fb	-0.10815998
132	0xbe303206	-0.17206582
133	0x3db0a48a	0.08625133
134	0xbe2b791b	-0.16745417
135	0x3b82d15a	0.003992242
136	0xbdee13ec	-0.116248935
137	0x3dd024ef	0.101632945
138	0x3d4e4761	0.05036104
139	0xbd69e897	-0.05710658
140	0x3cb1b421	0.021692337
141	0xbceb3d6e	-0.028715815
142	0x3e2a1bf1	0.16612221
143	0xbd29354a	-0.041310586
144	0x3c75199e	0.014959721
145	0xbdf8ef78	-0.1215505
146	0x3e0602bb	0.13086979
147	0x3db78131	0.08960188
148	0x3e154ae4	0.1457935
149	0x3c890161	0.01672429
150	0xbd18e14b	-0.03732423
151	0xbdf2efd0	-0.11862147
152	0x3d9190b8	0.07107681
153	0x3df7bd42	0.12096645
154	0x3d584bd2	0.052806683
155	0x3e0052d6	0.125316
156	0xbd57b60c	-0.052663848
157	0x3e0042fa	0.1252555
158	0x3c645fd5	0.013938864
159	0x3e27295d	0.16324373
160	0xbd911de7	-0.070857815
161	0xbc1aace4	-0.009440634
162	0x3dba4036	0.090942785
163	0xbd400422	-0.04687894
164	0xbd77da0b	-0.060510676
165	0x3cc4d672	0.024028037
166	0xbe2f21a2	-0.17102674
167	0xbd3516f7	-0.044211354
168	0x3dafc299	0.085820384
169	0xbcd092d3	-0.025460636
170	0xbccfe7e7	-0.025379134
171	0xbd7153f5	-0.05891796
172	0x3dcae546	0.09907012
173	0xbe2ae057	-0.16687141
174	0x3c84c775	0.01620839
175	0xbde480e4	-0.111573964
176	0xbe1629ae	-0.14664337
177	0xbdee4876	-0.116349146
178	0xbd4a6e03	-0.04942132
179	0x3ccd51c8	0.02506341
180	0xbd82c11b	-0.06384488
181	0x3b139315	0.0022518088
182	0x3dc5098b	0.09620961
183	0xbe297a10	-0.1655047
184	0xbc89f0c4	-0.016838439
185	0xbc112430	-0.008858725
186	0x3d8e13e4	0.069373876
187	0x3d185931	0.037194435
188	0x3e01c075	0.12671073
189	0x3ca93fe7	0.020660354
190	0xbe0f7308	-0.14008725
191	0x3e2d1c66	0.16905364
192	0x3b5a3d8e	0.003330085
193	0x3d9983f4	0.07495871
194	0xbe0f6117	-0.1400188
195	0xbddaffc3	-0.10693314
196	0xbcd37157	-0.02581088
197	0x3d2d1dcb	0.04226474
198	0x3b340132	0.0027466533
199	0xbd537544	-0.051625505
200	0xbc9c3191	-0.019066604
201	0xbdce8cc1	-0.100854404
202	0x3bfff791	0.0078114946
203	0xbcd9246e	-0.026506629
204	0xbe50230a	-0.20325866
205	0xbe385ab7	-0.18003355
206	0x3dccb9f6	0.09996407
207	0x3be1cb47	0.0068906876
208	0xb9719326	-0.00023038368
209	0x3da8b937	0.08238452
210	0x3d698426	0.057010792
211	0x3e08507f	0.13311957
212	0xbd35b5ce	-0.044362836
213	0xbe0188ab	-0.12649791
214	0x3d6d152b	0.057881515
215	0x3c9a570a	0.018840332
216	0xbd5815d3	-0.05275519
217	0x3e269149	0.1626636
218	0xbe4de163	-0.2010551
219	0xbc1ca931	-0.009561823
220	0xbe286fdb	-0.1644892
221	0xbc5385f7	-0.012910358
222	0xbda25f7b	-0.07928368
223	0x3de1321c	0.10995886
224	0xbacff7b5	-0.0015866669
225	0x3be63d3f	0.007026344
226	0x3c5dffb6	0.013549736
227	0x3dc98c96	0.09841268
228	0x3c40000e	0.011718763
229	0xbe087ef2	-0.13329676
230	0xbd719b56	-0.05898603
231	0x3de1cdc3	0.11025574
232	0x3dfb2d74	0.12264529
233	0x3e2e5202	0.17023471
234	0xbd352b8a	-0.044230975
235	0xba493482	-0.0007675366
236	0xbdab82ce	-0.083745584
237	0xbe2e2f5b	-0.17010252
238	0x3dbed1c5	0.09317354
239	0x3ce8e4b2	0.028429363
240	0xbdd5f0db	-0.1044633
241	0xbdc3caf5	-0.09560195
242	0x3d3e22db	0.04641996
243	0xbdba13e5	-0.09085826
244	0x3d4ce68f	0.050024565
245	0xbe05175c	-0.12997192
246	0x3e171e81	0.1475773
247	0xbdec20ad	-0.1152967
248	0xbb77f385	-0.0037834358
249	0x3db5308a	0.08847149
250	0xbe1f5f09	-0.15563597
251	0xbdb20295	-0.08691899
252	0x3c9660a6	0.018356632
253	0x3e2312a6	0.15925083
254	0xbe0b730e	-0.13618109
255	0x3d0d60ff	0.03451633

attn.Wo.bias f4 [20]
0	0xbe1f8d62	-0.15581277
1	0xbe25c116	-0.16186938
2	0x3d4c4b7a	0.049876668
3	0x3d56ad53	0.05241139
4	0xbdc28827	-0.09498625
5	0x3dd19f66	0.10235481
6	0x3d61e6c4	0.055151716
7	0x3df85bd3	0.12126889
8	0xbd9cf83a	-0.07664533
9	0x3be611d1	0.007021167
10	0xbe818558	-0.25297046
11	0xbe5d8033	-0.21630935
12	0x3e647a9b	0.22312395
13	0xbe0afb22	-0.13572362
14	0x3e0bad56	0.13640341
15	0x3e1f23ea	0.15541044
16	0x3e3c2c76	0.18376336
17	0xbe024077	-0.12719904
18	0xbe15224d	-0.14563866
19	0x3deb2ffa	0.1148376

out.0.weight f4 [40, 20]
0	0x3de2b6fd	0.110700585
1	0x3de970d2	0.11398472
2	0x3d87bd15	0.066278614
3	0x3d37edec	0.044904634
4	0x3e5278f4	0.20553952
5	0xbe09689d	-0.13418813
6	0x3e029e97	0.1275581
7	0xbce90b01	-0.02844763
8	0x3e7adce2	0.24498323
9	0xbe56011c	-0.2089886
10	0xbdf6a1a3	-0.120425485
11	0xbd0b9b06	-0.03408339
12	0xbe2d6f2e	-0.16936943
13	0xbc2d591f	-0.01058033
14	0xbdca4ab9	-0.098775335
15	0xbe0f3c98	-0.13987958
16	0xbe72ba8a	-0.23703972
17	0xbde8ee8e	-0.11373626
18	0x3e7d84e5	0.24757726
19	0xbdf89aee	-0.121389255
20	0xbda5fcbd	-0.081048466
21	0xbe4c07ca	-0.19924846
22	0x3dfd15ee	0.123576984
23	0xbd291da6	-0.04128804
24	0xbe457564	-0.19283062
25	0x3d6e79f7	0.058221783
26	0xbdfb3082	-0.122651115
27	0x3c316265	0.010826682
28	0xbe270f73	-0.16314487
29	0x3e0a8b94	0.13529807
30	0xbe81201e	-0.25219816
31	0xbe8e67c9	-0.27813557
32	0x3e00452c	0.12526387
33	0x3de6e13b	0.11273428
34	0x3db3f10b	0.0878621
35	0x3e1d7e1f	0.15380143
36	0x3e4d149a	0.2002739
37	0xbe50ff34	-0.20409852
38	0x3c4683be	0.012116371
39	0x3e1df7c1	0.15426542
40	0x3d277cdb	0.040890556
41	0x3c9e00cd	0.019287491
42	0xbd9961a6	-0.07489328
43	0x3e5c297e	0.21500203
44	0xbe1c2a7e	-0.15250584
45	0x3e6e4243	0.23267464
46	0x3e980410	0.296906
47	0x3e889978	0.26679587
48	0x3e024006	0.12719736
49	0x3e6ca29d	0.23108907
50	0xbe8ce40f	-0.27517745
51	0xbd18de0f	-0.037321147
52	0xbcd5b699	-0.026088046
53	0x3d58a5d4	0.05289252
54	0x3e07ecb2	0.13273886
55	0xbcb2bc7b	-0.02181839
56	0x3d337c67	0.04381981
57	0xbe319c10	-0.1734469
58	0xbe70f844	-0.23532206
59	0xbda0941d	-0.0784075
60	0xbdc58659	-0.096447654
61	0xbd88cbe0	-0.06679511
62	0x3d7ae766	0.061255835
63	0xbc372b9a	-0.011179829
64	0x3dfde8c7	0.123979144
65	0xbe661a03	-0.2247086
66	0xbe6e7922	-0.23288396
67	0x3dd2c750	0.10291922
68	0x3e3a6c42	0.1820536
69	0x3d49d9c9	0.04927996
70	0x3e4d4a66	0.20047912
71	0x3e65ec2e	0.22453377
72	0x3d7262c0	0.059176207
73	0x3e858fe3	0.2608634
74	0xbdf1a619	-0.11799259
75	0x3d7e453a	0.06207774
76	0xbe1d9531	-0.15388943
77	0xbd6ec48f	-0.05829292
78	0x3dbb818d	0.09155569
79	0xbdced08d	-0.10098372
80	0x3e03bc96	0.12864909
81	0xbe0f2a22	-0.13980916
82	0x3e599098	0.21246564
83	0x3e8395ee	0.25700325
84	0x3cd6ac51	0.026205214
85	0x3d33f568	0.04393521
86	0x3e4531f9	0.19257344
87	0xbbf33663	-0.007422255
88	0xbe110843	-0.14163308
89	0xbdec5988	-0.11540514
90	0x3e0a3b2d	0.13499136
91	0xbdb73d89	-0.08947284
92	0x3dac126a	0.0840195
93	0xbdfc31fa	-0.1231422
94	0x3d45926b	0.04823534
95	0x3db60bba	0.088889554
96	0x3d220837	0.039558616
97	0xbd9878e1	-0.07444931
98	0xbe2d64cf	-0.16932987
99	0xbdbdd970	-0.092699885
100	0xbdc12520	-0.09430909
101	0xbcfb2836	-0.030658823
102	0x3e26c9e2	0.1628795
103	0xbe184917	-0.14871632
104	0x3d9b3703	0.07578852
105	0xbd7400d2	-0.059571095
106	0x3e07a0b5	0.13244899
107	0xbcef0f6a	-0.029182155
108	0xbc1f77f7	-0.009733192
109	0xbd926f7b	-0.071501695
110	0x3e0c5d97	0.13707577
111	0x3dbcc82b	0.092178665
112	0xbdda3cb5	-0.1065611
113	0x3e010ae7	0.12601815
114	0x3d841120	0.06448579
115	0x3dd2cdfc	0.10293195
116	0x3bc9dd21	0.006160394
117	0x3d7d38ca	0.061821736
118	0x3e7a78b0	0.24460101
119	0x3cb6e6df	0.022326885
120	0x3e61ef9e	0.22064063
121	0xbd6387f0	-0.055549562
122	0xbdba8e47	-0.091091685
123	0xbd89d075	-0.06729213
124	0x3e04b1e9	0.12958492
125	0x3ca94829	0.020664291
126	0xbe49ccdc	-0.19707054
127	0xbda56af9	-0.08077044
128	0x3e4f4ed4	0.20244914
129	0x3e05cf6d	0.13067408
130	0x3d960962	0.073260084
131	0x3d4db103	0.05021764
132	0xbde3b087	-0.11117654
133	0x3e490541	0.1963091
134	0x3d063a27	0.032770302
135	0xbe0328b4	-0.12808496
136	0x3d4bd07f	0.049759384
137	0xbdefa8f9	-0.11702151
138	0xbb879531	-0.004137658
139	0x3cd3ec3a	0.025869478
140	0x3d41f8e9	0.04735652
141	0x3d13d324	0.03609003
142	0xbcf6b0d6	-0.030113619
143	0xbe01fd52	-0.1269429
144	0xbc27de81	-0.01024592
145	0x3e5040f0	0.20337272
146	0x3e13414c	0.14380378
147	0xbd633d1b	-0.055478197
148	0x3dfec6b9	0.12440247
149	0xbd725b6e	-0.059169225
150	0xbc81c62f	-0.015841572
151	0xbdb81970	-0.08989227
152	0xbd7c0382	-0.061526783
153	0xbe8138ab	-0.25238547
154	0x3da45ce8	0.08025533
155	0xbc6c4785	-0.014421348
156	0xbce675b6	-0.0281323
157	0xbe6f78b1	-0.23385884
158	0xbdf16022	-0.11785914
159	0x3d8bf300	0.06833458
160	0xbe65a98e	-0.22427961
161	0xbc733ffd	-0.014846799
162	0x3dadc9aa	0.0848573
163	0xbddee36a	-0.108832195
164	0x3e0e0f7c	0.13873094
165	0x3e7eec03	0.24894719
166	0x3e0a56f0	0.13509727
167	0x3d98f7b1	0.074691184
168	0xbe4a2406	-0.19740304
169	0x3e8cc7f2	0.27496296
170	0xbdf6bb79	-0.12047476
171	0xbe00aa5c	-0.12564987
172	0x3e91718c	0.28406942
173	0x3d611b32	0.054957576
174	0xbd222694	-0.039587572
175	0x3d97df1e	0.07415603
176	0x3e8393d8	0.25698733
177	0xbe55361d	-0.20821424
178	0xbe5a0d4c	-0.21294135
179	0x3df22fa9	0.11825497
180	0x3d9e7604	0.077373534
181	0xbdb2cdd5	-0.087306656
182	0xbdca49ed	-0.098773815
183	0x3e261470	0.16218734
184	0xbd8db355	-0.069189705
185	0x3c8e028e	0.017335203
186	0x3e9f5a58	0.31123614
187	0x3dcd5f36	0.10027926
188	0x3d905f48	0.070494235
189	0x3e489d24	0.19591194
190	0x3cd033ff	0.025415419
191	0xbe9ef381	-0.31045154
192	0x3de83b6b	0.11339458
193	0x3ca14c10	0.01968959
194	0x3e839386	0.2569849
195	0xbbf660a8	-0.0075188465
196	0xbd895f6f	-0.06707656
197	0xbe213e0b	-0.15746324
198	0xbe1f0753	-0.15530138
199	0x3e0e369f	0.13888024
200	0xbe11caec	-0.14237565
201	0xbd98d303	-0.07462122
202	0xbe41549e	-0.18879935
203	0x3e35dc2d	0.17759772
204	0x3dc8cd96	0.098048374
205	0xbdae7152	-0.08517708
206	0xbe4d68f8	-0.20059574
207	0xbc942b19	-0.018086957
208	0x3c305100	0.010761499
209	0xbe34992d	-0.17636557
210	0xbde878fc	-0.11351201
211	0xbdc3a97a	-0.095538095
212	0xba0ba53a	-0.000532705
213	0x3b8d8c9b	0.00431974
214	0x3e4e6622	0.20156148
215	0xbe1e21d7	-0.15442596
216	0xbdcc06b4	-0.09962216
217	0x3dc8ccf0	0.09804714
218	0x3e14eeda	0.1454424
219	0x3e04cdd6	0.12969145
220	0xbdca319c	-0.098727435
221	0x3d5ddeb8	0.05416748
222	0xbdde4c12	-0.10854353
223	0xbe3ed0b6	-0.18634304
224	0xbce85ba1	-0.028364005
225	0x3d8fb7ed	0.07017503
226	0xbe0b8255	-0.13623936
227	0x3d2373ed	0.039905477
228	0x3e0c036a	0.13673177
229	0x3bf1c19c	0.0073778164
230	0xbdbe046c	-0.09278187
231	0x3e513b65	0.20432813
232	0x3d9c9f3e	0.076475605
233	0xbd47e172	-0.048798986
234	0x3e3e6f6a	0.18597189
235	0xbe538f11	-0.20660044
236	0xbe1e1644	-0.15438181
237	0xbd533cd2	-0.051571675
238	0x3e43bc4f	0.19114803
239	0x3dfdd4c0	0.123940945
240	0x3cfcef2b	0.030875763
241	0xbdd5b719	-0.10435314
242	0xbdba00f8	-0.09082216
243	0xbc88ca1f	-0.016697941
244	0xbd8e0339	-0.069342084
245	0x3e45df3b	0.19323437
246	0x3d22dea1	0.039763097
247	0xbcf82ac5	-0.030293832
248	0xbe788d75	-0.24272712
249	0xbe2d9837	-0.16952597
250	0xbc967e10	-0.018370658
251	0xbe30253c	-0.17201704
252	0x3e299056	0.16558966
253	0xbacaa99b	-0.0015461923
254	0x3e0b7735	0.13619693
255	0x3e19dfb9	0.1502675

out.0.bias f4 [40]
0	0xbe2ddc62	-0.169786
1	0x3cd0ae7f	0.025473831
2	0x3df71085	0.12063698
3	0xbe2f168d	-0.17098446
4	0x3dc373b6	0.095435545
5	0xbe8ba628	-0.27275205
6	0xbc668812	-0.014070528
7	0x3e6202c5	0.22071369
8	0x3e0c1b60	0.13682318
9	0xbd032e7d	-0.032026757
10	0x3e562f91	0.20916583
11	0x3cc5aedd	0.024131233
12	0xbcbf51aa	-0.02335437
13	0x3e18d0ca	0.14923397
14	0xbe3d35ab	-0.18477504
15	0xbce2bc39	-0.027677642
16	0x3de4042c	0.11133608
17	0x3e527c08	0.20555127
18	0x3ec78e87	0.38975927
19	0x3e2267c3	0.15859894
20	0x3c08af3a	0.0083425585
21	0x3e2fda8d	0.17173214
22	0x3cca8e2f	0.024726002
23	0x3dd7b6ef	0.10532939
24	0x3d9139f6	0.07091133
25	0xbe405c64	-0.18785244
26	0xbda86d49	-0.082239695
27	0x3dac2d5e	0.084070906
28	0x3dde015a	0.108401015
29	0xbd827b80	-0.06371212
30	0xbd9b0668	-0.07569581
31	0xbda73c56	-0.08165805
32	0xbe1fca61	-0.15604545
33	0x3d239b04	0.039942756
34	0x3e63cd11	0.22246195
35	0x3e5aa102	0.21350482
36	0xbc7affab	-0.015319745
37	0xbdff1078	-0.12454313
38	0x3dfc0c6d	0.123070575
39	0xbe5e6054	-0.21716434
