old files/best_synth_fld_nmse.pt (torch, 65677 bytes, 15 tensors)

channel_embed f4 [3, 64]
000000 d4 c5 f8 3d f9 12 ad be 24 70 00 3f ef 26 bb 3d
       0.12147108 -0.33803537 0.50171113 0.09138285
000010 9f a3 1b 3f 89 ca ca 3e a0 16 25 3e 5a 4c 62 3e
       0.6079654 0.39607647 0.16121912 0.22099438
000020 fc 77 4a be 02 f7 af bf 80 3e 2f bf 90 2d 2d 3f
       -0.19772333 -1.3747256 -0.6845474 0.6764765
000030 d8 08 57 be 8c d0 00 be 99 5a f2 be ff f2 9d bf
       -0.20999467 -0.12579554 -0.47334746 -1.2339782
000040 ad 11 cf be 57 20 ab 3e a9 04 0e 3f 0f d1 15 3f
       -0.40443173 0.3342311 0.5547586 0.58522123
000050 65 b7 4f 3d 1f 08 ad be e6 ef 1b bf 03 8a 21 bf
       0.050712008 -0.33795258 -0.6091293 -0.63101214
000060 49 7b 4d 3f a6 26 2e bf ae 39 66 be c2 15 7a 3f
       0.80266243 -0.6802772 -0.2248294 0.9768945
000070 81 ae 94 bf 3c 80 59 3f 86 15 9a 3e 30 06 89 bf
       -1.1615754 0.84961295 0.30094546 -1.0705013
000080 f3 42 65 3f 06 1c 16 be e1 9e 20 c0 cc 64 fa 3e
       0.8955528 -0.14659128 -2.5096972 0.48905027
000090 c5 03 c2 be 6f c4 09 3f 99 85 f7 3e 19 82 01 c0
       -0.378935 0.5381536 0.48344114 -2.0235655
0000a0 98 b2 b2 3e 4f e7 86 3f 0a 67 96 3e 45 4e 8e bf
       0.3490188 1.053934 0.29375488 -1.1117636
0000b0 c3 36 a0 bf 6b 95 32 bf 4d d1 33 bd d1 6a b4 3e
       -1.2516712 -0.69759244 -0.043900777 0.35237744
0000c0 d3 7e 30 3f b0 0c e3 bf 9b e8 a9 be 4f 43 9f 3e
       0.6894352 -1.7738247 -0.33185276 0.3110604
0000d0 a4 95 74 3f 71 77 98 be 66 fc bd 3f 1b 20 18 3f
       0.95540833 -0.29778627 1.4842651 0.5942399
0000e0 e4 bf 02 3f fe b9 19 bf 8d 42 75 be 8f df 7e 3e
       0.5107405 -0.60049427 -0.23951168 0.24889968
0000f0 7f 0f 3e 3f 9a 51 ff be 3b e2 39 be 4c 8c b8 3e
       0.74242395 -0.49866945 -0.18152706 0.36044538
000100 ba 54 b3 be 60 4f ac bf 83 c8 d3 bf 60 80 3d bf
       -0.3502558 -1.3461723 -1.6545566 -0.7402401
000110 1f 66 21 bf 94 9b b5 bf 52 ff f8 3e 2e f5 14 bf
       -0.6304645 -1.4188104 0.48632294 -0.58186615
000120 dd a0 6c 3f 90 12 cf bf bb f4 0f bf 50 6c a8 3f
       0.9243296 -1.617754 -0.56232804 1.3158054
000130 e1 a3 f9 3d 6c 30 7f 3f 0e 28 8b 3f 95 72 94 3e
       0.121894605 0.9968326 1.0871599 0.2899367
000140 e2 84 1c 3f 25 57 41 3f 1a 61 ef 3e b5 28 d2 be
       0.61140263 0.75523597 0.4675377 -0.41046682
000150 14 10 09 3f 59 50 86 be 1a 3e 36 3f e3 e1 c0 bf
       0.5354016 -0.26233175 0.7118851 -1.5068935
000160 9e dd 74 3f c2 de 31 bf f4 2d ab 3e ff b2 08 40
       0.9565066 -0.69480526 0.33433497 2.135925
000170 74 6b 8f bd c0 e5 a8 3f 27 f3 57 bf 20 48 f1 3c
       -0.07002917 1.3195114 -0.84355396 0.029453337
000180 9d 03 69 3f 57 42 9c bf 36 af 1d bf 6b 40 63 3f
       0.9102114 -1.2207745 -0.61595476 0.8877017
000190 5d fc 1b be 59 b1 d7 3e 11 5b 20 bf dc 5d a7 bd
       -0.15232988 0.42127493 -0.62638956 -0.08172199
0001a0 05 85 77 3e d4 15 0a 3f 05 ae ee 3e 00 d1 af bf
       0.24171837 0.5393956 0.4661714 -1.3735657
0001b0 78 9c bd bf 21 d5 0b 40 57 99 4b be 90 c2 7d 3c
       -1.4813375 2.1848834 -0.19882713 0.015488282
0001c0 ec 66 f6 be 73 28 bb 3e d5 ce 2d 3f 07 3d a1 bd
       -0.48125398 0.36554298 0.67893726 -0.07872968
0001d0 b3 34 65 3f 39 ed 92 bf 68 6a d3 be f9 25 da bf
       0.8953354 -1.1478645 -0.4129212 -1.7042838
0001e0 49 13 b0 3f 3c 12 8b 3e 79 0e a0 3f 49 0c 58 3f
       1.3755885 0.2716235 1.2504417 0.84393746
0001f0 33 d3 5b 3e 6d 1e b1 3e f3 87 2a bc aa 16 b7 3f
       0.21467285 0.34593526 -0.010408389 1.4303792
000200 2a 4d f5 bf db f3 e5 bf 32 fb 9b 3f 68 c4 18 3e
       -1.9164174 -1.7965044 1.2186034 0.14918673
000210 78 b9 85 3e dd 80 1e 3f c2 03 2a bc dd 2a f4 bd
       0.26118064 0.6191538 -0.0103768725 -0.11922238
000220 77 d0 86 3e 5c 93 41 3a 9b f4 a6 3e 7e 61 ba bc
       0.2633092 0.0007384324 0.32608494 -0.022751566
000230 33 d1 9b bc a6 70 32 bf 6f 43 08 bd 16 cd f1 bf
       -0.019020652 -0.6970314 -0.033267435 -1.8890712
000240 e7 9a 52 bf 07 2e e8 3d 96 50 52 bf 00 64 1d be
       -0.8226761 0.11336904 -0.82154214 -0.15370178
000250 7f 5d 7a be 0d e5 3a bd 9d 08 ad 3e 31 5c 87 bf
       -0.24449728 -0.045628596 0.33795634 -1.057501
000260 e7 2e dc be 37 37 31 3f e0 26 58 be 2b 29 c7 bf
       -0.43004534 0.69224876 -0.2110858 -1.5559438
000270 39 fb a4 bf 8f e6 61 3f b3 17 01 bf 2d 6a 19 3f
       -1.2889167 0.8824243 -0.5042679 0.59927636
000280 f9 b9 e6 be d8 48 93 be 56 a3 f0 bf bc 10 9b bf
       -0.4506376 -0.28766513 -1.8799846 -1.2114482
000290 81 38 9e 3d 96 8e 32 3f e5 45 0f 3f c9 4a 4b 3f
       0.07725621 0.6974882 0.55966026 0.7941099
0002a0 ae 95 25 3e a7 d5 17 be 59 26 a0 3f b3 24 0f 3f
       0.1617038 -0.14827596 1.2511703 0.55915374
0002b0 40 1b 8d 3f 96 b6 5b 3f 6c 23 96 3d 9e d3 0f c0
       1.1023941 0.8582548 0.07330975 -2.247291
0002c0 eb 8d 94 3e 43 46 0f 3e c5 9c a0 bf 5f 51 e0 be
       0.29014525 0.13991646 -1.2547842 -0.4381208
0002d0 dd 00 3b 40 e0 ff ff 3c 2f a2 65 3f 44 55 50 be
       2.9219277 0.03124994 0.897006 -0.20345026
0002e0 4c 48 29 3f 16 60 0c bf d8 aa 93 be 61 06 74 3f
       0.6612594 -0.54834116 -0.2884128 0.95322233
0002f0 c3 e1 8d 3f df d3 e9 3f 1c 4f 55 3f 06 2c 30 3f
       1.1084522 1.8267783 0.83323836 0.68817174

time_linear.weight f4 [64, 1]
000000 29 8c e8 3d 79 86 02 bf f3 d8 37 bf ec 1b 4e 3f
       0.113548584 -0.5098644 -0.71815413 0.80511355
000010 6c 8e 60 bf 43 ca 08 3f 75 24 5d bf aa 74 33 be
       -0.8771732 0.53433627 -0.86383754 -0.17524973
000020 3e f6 e1 3e 59 65 07 3f e1 fa ec 3d 66 9a b7 3e
       0.4413318 0.5288902 0.11571289 0.35859984
000030 3c ed ee 3e 36 32 ba be 36 84 35 bf 82 39 37 be
       0.4666537 -0.36366433 -0.7090486 -0.17893031
000040 8d d1 f0 3e c4 0f a7 bc ac d8 5a bd 53 c1 3d bf
       0.47034875 -0.02039326 -0.05342929 -0.74123114
000050 51 e8 28 bf 31 b8 fa 3e e7 05 e3 3d 5c cb a9 3b
       -0.65979487 0.48968652 0.1108511 0.005181713
000060 e4 7e 59 bf 12 e5 05 bf 96 74 a3 be c3 45 38 bf
       -0.84959245 -0.5230266 -0.31924886 -0.7198145
000070 0d cb c9 be e1 ff 51 3f 87 d8 04 bf 3d 8d 65 3f
       -0.39412728 0.82031065 -0.51892895 0.8966864
000080 30 24 2f bf 51 61 4c 3f 2d 98 6c 3f 07 35 ea be
       -0.6841459 0.79835993 0.924197 -0.45743582
000090 5e 3d 22 bd 70 35 f0 3e 18 41 40 bf 84 e9 74 bf
       -0.039609306 0.4691577 -0.75099325 -0.95668817
0000a0 73 c9 d1 bd b1 ad 58 3f b5 95 51 bf cf a2 4a 3f
       -0.102435015 0.8464003 -0.8186906 0.79154676
0000b0 82 48 e9 3e b3 04 52 bf df 4f d5 be f0 67 24 3f
       0.45563132 -0.8203842 -0.416625 0.64221096
0000c0 fa 2c 5d bf a3 69 26 be 5a 7b 20 be 6c f3 80 bd
       -0.86396754 -0.16251235 -0.15672055 -0.06296429
0000d0 ee e4 9e be be f5 10 3f 90 46 6d bf 97 1f 3e 3f
       -0.31034034 0.5662497 -0.92685795 0.7426695
0000e0 48 71 0d 3f 35 91 79 3f a1 1e b5 be db 29 a6 be
       0.5525098 0.97487193 -0.3537493 -0.32453808
0000f0 16 0b 7a 3e 12 62 4b bf fc 33 4a bf 2c a1 83 be
       0.24418291 -0.7944652 -0.7898557 -0.25708902

time_linear.bias f4 [64]
000000 e1 f9 26 be 75 47 b7 3d b0 42 bf 3d 1c 37 6a 3e
       -0.16306259 0.08949176 0.093388915 0.22872585
000010 83 e9 32 3f 13 07 28 be 9e f2 10 3f 7b a0 25 3d
       0.6988756 -0.16408949 0.56620204 0.04043625
000020 11 b3 18 bf a8 35 19 3f d7 fa cb 3e e0 f4 3a 3f
       -0.59648234 0.598475 0.39839813 0.730299
000030 16 64 62 bf 7f c8 46 3f 0e 09 f4 3d be fc 0a 3f
       -0.8843397 0.7764968 0.119157895 0.54291904
000040 8b 51 de bd 9c 0b 58 be 55 b4 28 bd 96 24 ca be
       -0.10855397 -0.21098179 -0.041187603 -0.39481038
000050 d1 30 06 bf a5 2f 88 bd 42 03 51 bf 06 f2 ec be
       -0.5241824 -0.066497125 -0.81645596 -0.462784
000060 b5 51 2a 3f 07 11 29 3f 63 76 32 3e b3 67 e1 3e
       0.66530925 0.66041607 0.17427973 0.4402443
000070 9a 08 52 3f 45 d3 5b 3f 0b d3 ed 3e 8b 6a 25 bf
       0.82044375 0.85869247 0.46450076 -0.64615697
000080 1b 4b 99 3e d7 76 69 bd ce 04 8b be 21 63 1c 3f
       0.29940113 -0.0569981 -0.27152103 0.6108876
000090 23 a5 ac be e0 bb c8 bd e3 a1 d6 3e 86 3e 47 3f
       -0.3371974 -0.09801459 0.41920385 0.7782978
0000a0 fe ef d5 be 61 51 fa be 2d b3 0c 3f 41 e2 4e 3f
       -0.41784662 -0.48890212 0.549609 0.80813986
0000b0 b9 ba 86 bd d4 cf b8 3e 38 54 53 3e 6e a9 06 3e
       -0.06578583 0.3609606 0.20637596 0.1315057
0000c0 69 a1 63 3f 23 1c 38 bf 6c fd bb be c8 c6 06 3d
       0.8891817 -0.71917933 -0.36716783 0.032904416
0000d0 21 ec bb be a2 e6 df 3e 3c 8d 41 3f da ea 60 3e
       -0.3670359 0.43730646 0.7560613 0.21964589
0000e0 76 fa a8 3e 37 ba 16 bf c5 9f 1f 3f 28 11 81 3e
       0.33003587 -0.5887789 0.62353164 0.25208402
0000f0 5b e0 b9 be 16 6e 82 3e 31 c1 fd 3d 36 da 82 be
       -0.36303982 0.25474614 0.12390364 -0.25557107

attn.Wq.weight f4 [64, 64]
000000 6a b6 01 bd 70 84 27 3d c6 fa df 3d e8 e2 aa bd
       -0.031668104 0.040897787 0.10936503 -0.0834406
000010 61 18 69 3d f6 97 e8 bc 91 fc 23 bd 9b dd 21 be
       0.056908015 -0.028392773 -0.040035788 -0.15807192
000020 9f 2b a1 3d a4 4e 21 3c 5a 6c 0d be 4c d4 c2 bd
       0.07869648 0.00984541 -0.13810864 -0.09513149
000030 c7 e2 07 bd 3b 7a 18 3d 0c b4 01 be 0e 56 33 3d
       -0.033175256 0.037225943 -0.12666339 0.04378324
000040 43 64 9d 3d 27 62 93 3c a0 72 38 bd a2 9e f7 3d
       0.07685139 0.017991139 -0.04503119 0.12090804
000050 dd 85 03 be 9c 00 88 3d 10 e7 b0 bd 99 15 9e 3c
       -0.12844034 0.06640741 -0.08637822 0.019297408
000060 e6 9d ce 3b ae 2e c7 b9 a8 19 5d 3c e9 eb 00 3e
       0.006305444 -0.00037991017 0.013494886 0.12589993
000070 80 91 b6 bc 98 25 c7 3b 31 41 0b 3e 6d b4 c9 bd
       -0.022286177 0.0060774796 0.13599087 -0.098488666
000080 a8 65 b0 bb 1d 4b f8 bc 44 93 f9 3c aa 30 3c 3d
       -0.005383212 -0.030309254 0.03046573 0.045944847
000090 ea 66 c8 bc 9e b6 99 bc 1a 6a af 3c 4d bf 99 3c
       -0.024463136 -0.018763836 0.021412898 0.018767977
0000a0 14 1d d0 bd 30 1f 87 3c a7 bd f4 bd c0 f8 ed bc
       -0.10161796 0.016494364 -0.11950236 -0.029049277
0000b0 80 26 2d bd 76 b0 21 be 32 d5 04 be 18 97 10 3d
       -0.042273045 -0.15789971 -0.12971953 0.035300344
0000c0 5e 7f e2 3d c1 9e a5 bc b5 06 26 be fb ab a5 3d
       0.110594496 -0.020217301 -0.16213496 0.08089443
0000d0 5f 2d 8c bd 1f 7e a1 3d 51 0f 6e bd 7e d5 2b bd
       -0.06844591 0.07885384 -0.058120076 -0.04195165
0000e0 70 1d 9a 3d 95 c0 19 3e 94 cc f8 bd cf a1 6e 3d
       0.07525146 0.1501487 -0.12148395 0.05825978
0000f0 27 44 a7 bd b3 a2 e8 bb 98 76 01 3d 33 c5 e7 bd
       -0.08167296 -0.0070994734 0.03160724 -0.1131691
000100 ec ed 8c bd 32 73 42 bd 8d e0 61 bd 1e 3f bd 3d
       -0.068813175 -0.04747314 -0.05514579 0.09240554
000110 25 c5 ff bc 41 79 38 3c 4f 12 29 be 0b 69 79 3d
       -0.031221936 0.011259378 -0.1651089 0.060891192
000120 df d0 cd bd 4c 4b b3 bc d2 5c 09 3c db 8c e4 3c
       -0.100496046 -0.02188649 0.0083839465 0.027899196
000130 99 68 cf bd 62 7d 01 bd 3f 96 d5 3d 2c 8d 8a 3d
       -0.10127372 -0.031613715 0.10429048 0.06765208
000140 81 47 b8 3d c1 94 e4 3d 4b 4f 0a bd f1 db cc bd
       0.08998013 0.11161185 -0.033767026 -0.10002888
000150 3e 60 4d 3c 2d 9e 3b 3e 5f d9 f8 3d 26 54 18 3e
       0.012535153 0.18322058 0.12150835 0.1487585
000160 44 b9 e3 bc 86 c1 e8 bd 5d 02 28 3e ea 6f 69 bd
       -0.027798302 -0.11365037 0.16407152 -0.056991495
000170 6b 86 64 3b 3e e0 84 bc 02 ed 73 bc 48 84 ae 3c
       0.0034870158 -0.016220208 -0.01488805 0.021303311
000180 04 5e 9b 3d 2e ac 0b 3c d2 d7 61 bd 07 a1 0d 3e
       0.075862914 0.008524938 -0.055137463 0.13830958
000190 d5 b1 c6 3b cd fd 10 3e 31 d5 0c 3e 08 33 5d bc
       0.0060636797 0.14159317 0.13753201 -0.013500936
0001a0 8f 84 10 be 4a df e5 bc d3 42 02 3e a8 1f 95 bd
       -0.14113067 -0.028060574 0.12720804 -0.072814286
0001b0 cf 94 0b 3e b6 ba fe 3c ea 86 8b 3d bd b2 41 3d
       0.13630985 0.03109489 0.06812842 0.0472896
0001c0 86 6b 32 bd 72 de 5c bd f3 ad c9 3c 65 b1 0a bd
       -0.043559574 -0.053923078 0.024619078 -0.033860583
0001d0 48 5a ba 3d 54 68 53 3e 7f df 55 bc 4c 6e 23 3d
       0.09099251 0.20645267 -0.013053774 0.03990011
0001e0 6e 14 36 bd 29 60 25 3e e6 54 c1 bd 30 2a 46 3e
       -0.044453077 0.16149963 -0.09440021 0.19352031
0001f0 19 bf bb 3d 06 fe 5e bc 65 b7 a5 bd 39 72 a8 bd
       0.09167308 -0.013610369 -0.0809162 -0.08224911
000200 0e 80 89 3d f6 74 81 bd 39 37 4e 3d 38 4d 03 be
       0.067138776 -0.06321137 0.050345633 -0.12822425
000210 e4 b0 5c bc 66 fe b5 3a 52 15 a0 3c 10 10 5b 3c
       -0.013469908 0.0013885021 0.019541416 0.013370529
000220 d9 0e 95 bc 73 62 73 bd e0 cf a7 bd e9 f0 06 be
       -0.018195556 -0.05942006 -0.08193946 -0.13177837
000230 db a9 f2 bc bb 1a f7 bc e1 76 05 3e 37 ff 10 be
       -0.029622009 -0.030164113 0.1303363 -0.14159857
000240 bd 4c 9e 3d 8d 01 73 bd 2c ff e4 3d 17 c8 99 bd
       0.077294804 -0.05932765 0.11181483 -0.07508867
000250 69 ad a1 3d 39 2c b6 3d 6e e1 98 bd 35 5f 80 3d
       0.078944035 0.088951536 -0.07464872 0.06268159
000260 a5 bb 00 be d4 a1 27 3d 00 ed 5a ba f9 58 ca ba
       -0.1257158 0.040925816 -0.0008351356 -0.0015437893
000270 d2 a8 fb 3c ae c1 17 be 5a a2 79 bd 69 69 2f 3d
       0.030720148 -0.14819977 -0.060945846 0.042825136
000280 41 18 28 3e 48 d8 c2 bd c2 26 90 3d 75 ee 08 3e
       0.16415502 -0.095139086 0.070386425 0.13372214
000290 64 79 12 be e0 92 e7 3c 09 7e 1e 3e 51 24 3c bd
       -0.1430412 0.028268278 0.15477766 -0.04593307
0002a0 3f 21 f1 bc 52 9d d4 bd 70 d5 ea 3b c0 5a 03 be
       -0.029434798 -0.10381569 0.007166557 -0.12827587
0002b0 8c 23 30 3e 45 29 6e 3d bc 8c c0 3d 72 ac 19 3e
       0.1720106 0.058144826 0.09401843 0.15007189
0002c0 e2 5b 4c bc d3 80 76 bc fe 6e e3 bb e8 65 5a 3d
       -0.012473078 -0.0150453625 -0.0069407215 0.05331984
0002d0 d3 c9 86 bd 2b 03 d1 3d 08 71 8d 3a 71 c5 d4 3d
       -0.06581464 0.10205682 0.0010791132 0.103892215
0002e0 fa cd 12 3e 8a 72 8a 3b 75 91 e9 bc a5 b2 49 bd
       0.14336386 0.00422508 -0.028511742 -0.049242634
0002f0 42 cd b4 bd ac a8 34 3d aa a7 19 3d 34 3e c6 bd
       -0.08828212 0.04410617 0.037513413 -0.09679833
000300 10 0e d9 3d 8d 3f 39 3c bb 24 1f bd 14 36 11 3e
       0.10598385 0.011306656 -0.03885339 0.14180785
000310 34 a9 28 3e e7 34 9f 3c c4 09 a1 bd 6b 32 15 3d
       0.16470796 0.019434405 -0.07863191 0.036425035
000320 05 e1 86 bd 80 d9 11 3d b4 cf 01 be 7f 70 fa 3d
       -0.06585888 0.035607815 -0.12676889 0.12228488
000330 86 90 ee 3d 10 11 23 3e 8e 9c 4d bd be 0a 4c 3c
       0.116486594 0.15924478 -0.05019813 0.012453733
000340 8c 50 b3 bc 10 1c f3 bd ae 92 73 3d 37 0f 6f 3d
       -0.021888994 -0.11870587 0.059466057 0.05836412
000350 a8 c2 44 bd 8c ac bd 3d f9 05 ad 3d 38 76 22 bc
       -0.0480372 0.09261426 0.08448405 -0.009915881
000360 57 c7 42 3c 85 b3 35 3c c3 b7 c1 bd d2 5b 24 3d
       0.011888347 0.011090164 -0.09458878 0.04012663
000370 9c 95 26 3e 1a a6 80 bd 93 89 6d 3d 09 12 a3 3c
       0.16268009 -0.06281681 0.05799253 0.01990606
000380 a2 0f 97 bd dc b7 35 3e b6 ff 99 3d de e9 13 be
       -0.073760286 0.17745918 0.07519476 -0.14444682
000390 96 aa 42 3e bd bd a8 bd 88 54 34 be 5b 12 33 bc
       0.19010386 -0.08239315 -0.17610371 -0.010929669
0003a0 79 33 30 bc 6b 9e 7f 3d 3d 08 ac bd eb f4 d3 3d
       -0.01075446 0.06240694 -0.08400009 0.10349449
0003b0 8b 98 99 3d 1b 32 be 3d 52 24 11 bd 09 ce 01 be
       0.074997984 0.092869006 -0.03543503 -0.12676252
0003c0 fe e6 bf 3c 0a ac 55 bd 51 dd a4 3a e9 ab 52 3d
       0.023425575 -0.052166022 0.0012578164 0.051433478
0003d0 fd 2b 18 3d d2 8e 11 be 3c d3 0c bc 47 3c 35 bd
       0.037151325 -0.14214638 -0.008595284 -0.044246938
0003e0 f1 73 21 be 8a f8 15 bd 64 7e 5d 3d af 7e b0 3c
       -0.15766884 -0.03661398 0.054075614 0.021544782
0003f0 e3 25 14 bd ed 3a b1 3d 9c 45 ce bd 26 c4 37 3d
       -0.036168944 0.08653817 -0.10071871 0.044864796

attn.Wq.bias f4 [64]
000000 88 32 3d b9 fa 47 55 3d a4 3a a2 bd 89 fb 29 3d
       -0.00018043269 0.052070595 -0.07921341 0.04149965
000010 4f 19 68 3d 0d 5b c2 3d 56 d2 8d 3d 08 69 84 bc
       0.05666476 0.09490023 0.06924884 -0.016163364
000020 ae df 65 3d 55 1d 4a bd 0a c5 95 3d 44 3c 8f bd
       0.05612152 -0.04934438 0.07312973 -0.06993917
000030 12 f0 68 3d 6a 3e 85 3d ce 9c 51 bd c1 40 51 ba
       0.056869574 0.06506045 -0.05117493 -0.00079823664
000040 36 17 24 bd 97 73 1a bc b9 98 32 bc 4d 60 02 bb
       -0.0400612 -0.009426973 -0.01090067 -0.0019893826
000050 81 11 a7 bd 65 d2 b9 3d a1 07 54 3d 9f bd 2f bc
       -0.081576355 0.09073333 0.051765088 -0.010726362
000060 9f 2a a8 3d fe 62 df bd 71 f6 a1 bd aa 52 cc 3d
       0.08211254 -0.10907553 -0.07908333 0.099767044
000070 a9 45 89 3d 86 1e 24 b9 7a 72 f9 3c 4c 32 b2 3b
       0.0670274 -0.0001565163 0.030450094 0.0054381248
000080 68 86 bf 3d 93 92 8a bc 28 69 d4 3d cc 10 48 bd
       0.09351808 -0.016915595 0.103716195 -0.048844144
000090 c0 30 2a ba 17 94 8f 3d eb de f8 3c a3 ba 28 3d
       -0.00064922497 0.07010668 0.030379733 0.041193616
0000a0 a5 3c a0 bd a3 43 bc 3d 08 5c 93 bc 31 f8 f1 3b
       -0.07824067 0.09192588 -0.01798822 0.007384323
0000b0 fe c9 88 bd f2 49 9c bd bf c6 9e bd 09 16 a8 3d
       -0.06679152 -0.076312914 -0.077527516 0.08207328
0000c0 cc ca 9c bd 7d 0b f6 bd 28 0e 03 3e a9 ee 86 3d
       -0.07655868 -0.1201391 0.12798369 0.065884896
0000d0 1b 3f 93 3c d4 7c 7a bc 7f eb 23 bd fc 5c 27 bd
       0.017974427 -0.01528855 -0.04001951 -0.04086016
0000e0 42 0b 4c bd 8d ff d5 3d 28 c1 a9 3d a0 df 97 bc
       -0.049815424 0.10449133 0.08288795 -0.01853925
0000f0 2f 23 ec 3d 4c 34 a6 bc d9 50 30 3d e6 0f 93 bd
       0.11530148 -0.020288609 0.043045852 -0.07180767

attn.Wk.weight f4 [64, 64]
000000 bc 06 98 3c 95 da 15 3d d2 16 1a be d2 a4 3a 3d
       0.018557899 0.03658541 -0.15047768 0.04556734
000010 c9 dc 70 3d 00 4a 02 bd 89 28 1f bd 7e a4 97 3d
       0.058804307 -0.031808853 -0.038857017 0.07404421
000020 c0 e2 01 3e c1 61 48 3c a7 03 1b bd 82 fd 90 bc
       0.12684155 0.012230338 -0.03784528 -0.017699007
000030 af 7b 2b 3e b9 93 61 3c 0a b4 4f bd 06 fa 13 3e
       0.167464 0.01376813 -0.050708808 0.14450845
000040 2d c8 7c bc 31 84 7b bd f2 f6 63 bd bf 2b 63 3d
       -0.015428585 -0.061405364 -0.055655427 0.05546164
000050 e0 9d b4 bd 26 d4 e5 3d 6e 3d 93 3d 93 61 ff bb
       -0.08819175 0.11222105 0.07189451 -0.007793614
000060 9e de 77 bd 77 23 5c 3d f4 ae a3 3d 92 26 03 3e
       -0.06051504 0.05374476 0.07992354 0.12807682
000070 1b e3 af 3d 1b 1d 16 3e 23 e9 f1 bd 26 d8 0c 3d
       0.08588239 0.1465954 -0.118120454 0.034385823
000080 e5 79 23 bd 9e c2 39 3d d5 4c b4 bc 98 b6 78 3d
       -0.03991117 0.045351617 -0.022009293 0.06072101
000090 31 e2 95 bd ea 6c dc 3d 40 fd b0 bc f6 67 be bb
       -0.07318533 0.10762961 -0.021605134 -0.005810733
0000a0 81 27 36 be 3c d7 d2 3d bd 0c 5f bc ab 95 02 be
       -0.17788507 0.10294959 -0.013613877 -0.12752406
0000b0 dd 6e 75 bc 59 eb 58 bd 57 a3 4d 3d b8 e1 47 bd
       -0.014980045 -0.05295882 0.0502046 -0.048799247
0000c0 7b 44 97 bc 49 bf a1 3d 88 6e 05 3d 72 bf 16 3d
       -0.018465271 0.07897813 0.032576114 0.03680367
0000d0 c0 1d 86 3d e0 86 52 bd bc 4d 07 bd 83 c1 5b bd
       0.06548643 -0.051398158 -0.033033118 -0.053651344
0000e0 6b bb 00 3e 33 8e 8b 3c bc 45 d9 3d 71 d4 38 bd
       0.12571494 0.01703558 0.10609004 -0.045124475
0000f0 3f 37 af 3d 5c ba a2 bc cf 7f 19 bd 1a 81 60 bd
       0.08555459 -0.019864254 -0.037475403 -0.05481062
000100 97 ee 2e 3e bd 46 d7 3d c6 70 a2 3d 2d 62 9e bd
       0.17083202 0.10511539 0.07931666 -0.07733569
000110 17 ad ad 3d a8 d5 89 bd 40 56 b3 bd 45 8e a9 3d
       0.0848028 -0.06730205 -0.08756685 0.08279089
000120 48 cd 04 3e 42 c0 0c be d8 54 77 bb 65 a0 f2 ba
       0.12968934 -0.13745216 -0.003773978 -0.0018510936
000130 74 b5 8f 3d b3 ba 0a 3c 8b 42 a4 3d 5a ea 7f 3c
       0.07017031 0.008467364 0.080205046 0.015619839
000140 53 49 bd 3d 87 85 90 bc 4c 38 c5 3d e1 f7 bd 3d
       0.09242501 -0.017641796 0.096298784 0.09275795
000150 ae b2 be bd 11 c4 a7 3c 04 84 7c bd d0 79 c5 bd
       -0.09311424 0.020479234 -0.061649337 -0.096423745
000160 d4 1e f6 bc 97 43 ca bc 43 d9 dc 3d 4e bd c6 3c
       -0.030043997 -0.024690432 0.10783627 0.02426019
000170 7b 5e a9 3d 1d 11 c6 3d ff 31 88 bd 95 03 f1 bd
       0.08269974 0.09671233 -0.06650161 -0.11768261
000180 73 1b 0a 3e 9a 2f 92 bd e7 c4 71 bd 2c bf b2 bc
       0.13487034 -0.071379855 -0.05902567 -0.021819673
000190 44 09 f1 3b 4e f4 87 3d de 17 0e 3d 8b f5 96 3c
       0.007355841 0.06638394 0.03469073 0.01842763
0001a0 55 92 0d 3e d6 47 f8 3d fb c0 db bd c1 21 31 bd
       0.13825352 0.121230766 -0.107301675 -0.04324508
0001b0 5b bb 2e be d5 9e 85 bd 1d 29 ca bd 47 4d e8 3d
       -0.17063658 -0.065244354 -0.09871123 0.113428645
0001c0 0d cf da bd 79 43 04 be 88 d9 b7 3d 36 d7 d2 3d
       -0.10684023 -0.12916364 0.08977038 0.102949545
0001d0 1e 97 cc bd aa 8c 90 bd 0b 92 ef bd ad 0b d5 bd
       -0.09989761 -0.070580795 -0.11697777 -0.104026176
0001e0 bb 65 46 3d c2 02 85 bd 8a 80 a5 bd bf f2 79 3d
       0.04843686 -0.06494667 -0.080811575 0.061022516
0001f0 9e be b5 bd 5b 5e ae 3c 22 03 de bd 91 92 73 bd
       -0.08874248 0.021285227 -0.10840441 -0.05946595
000200 9d 7a e5 3d 21 45 20 bd f0 db bd ba 24 18 99 bd
       0.11205027 -0.039128426 -0.0014485102 -0.074753076
000210 07 9a 82 3d 45 d7 f3 bd dd 6d 8e bd 31 a1 bd bd
       0.06377035 -0.11906294 -0.069545485 -0.092592604
000220 13 78 ab 3c d3 6b 4c bd 44 ba 90 3d 71 69 11 3d
       0.02093128 -0.049907517 0.07066777 0.035500947
000230 17 77 ce 3b 41 07 b6 bd ba c4 c2 bc c3 b5 cf 3d
       0.0063008177 -0.08888102 -0.023775447 0.1014209
000240 e6 d7 b4 3d aa 19 33 bd eb f6 8a bd 61 ae e5 bd
       0.08830242 -0.043725647 -0.06785377 -0.11214901
000250 da 94 d9 3d 92 92 44 3d c0 61 97 3d a0 e8 f7 bd
       0.10624094 0.047991343 0.07391691 -0.121049166
000260 3c 27 9b 3c 68 88 67 3b a1 79 61 3d a8 33 b6 3d
       0.018939607 0.0035329107 0.055047635 0.088965714
000270 d4 65 a7 bd b9 40 08 bd 81 ec 41 bd c2 10 c9 3d
       -0.08173719 -0.03326485 -0.04734469 0.098176494
000280 d0 24 fa 3c e5 60 16 bc f4 42 a3 bd ee e2 e8 3d
       0.030535132 -0.009178375 -0.07971755 0.113714084
000290 9e c0 9d 3d a7 e1 6c bd 91 82 a0 3d 45 05 97 bd
       0.077027544 -0.057832386 0.078374036 -0.07374052
0002a0 21 b0 9b 3c 1c 5f df 3d 6a a0 af bd 0a c1 f0 3d
       0.019004883 0.109068125 -0.085755184 0.11755569
0002b0 32 d4 f1 bd 91 71 b7 bc 43 ed a5 bd 20 3b cb bd
       -0.11808051 -0.02239302 -0.08101895 -0.099233866
0002c0 2e fd 1e 3d de 5f 22 3c bf 07 49 3d b6 43 cc bd
       0.03881567 0.009910552 0.049079653 -0.09973852
0002d0 f0 ff 6e 3b bf 88 a0 3d 70 5f 6a bd dc ad 6e 3d
       0.0036468469 0.07838582 -0.057219923 0.058271274
0002e0 ed e9 c2 3c 6d ce d8 3d 73 58 9e bd 55 de dc 3d
       0.023793185 0.105862476 -0.07731714 0.10784594
0002f0 77 67 b4 bd 60 d8 72 bd 7f a1 7b 3d f8 cd e7 3d
       -0.08808797 -0.059288383 0.06143331 0.11318582
000300 87 e0 bd bd e6 53 4f bd cc f8 a5 3d 80 86 bf bc
       -0.09271341 -0.05061712 0.08104095 -0.023379564
000310 3b 4e 7c 3c b4 28 43 bc a6 fb bf 3d 9e 0f 3b 3d
       0.015399511 -0.01191156 0.0937417 0.04566919
000320 69 3c ff bd 69 65 2e bd fd 42 8b bd a2 da f5 bd
       -0.12462694 -0.04257718 -0.067998864 -0.120045915
000330 76 41 03 be 15 4a 68 3d 10 f1 07 be 8b 09 88 bd
       -0.1281794 0.056711275 -0.13275552 -0.06642445
000340 e8 27 51 bd 76 16 fa bd 76 66 90 bd 7f 53 c1 3d
       -0.05106345 -0.12211315 -0.07050793 0.09439754
000350 c7 90 cb bd d7 17 5b bc fe 65 c8 bd 83 7e f0 3d
       -0.099397235 -0.013372383 -0.097850785 0.1174288
000360 05 b9 a0 bd c4 f5 dc 3d c8 d2 b4 bd 9e 70 61 3d
       -0.0784779 0.107890636 -0.08829266 0.05503904
000370 c3 06 8e bd 71 f0 2c bd 69 85 23 3e bb f5 35 be
       -0.069348834 -0.04222149 0.1596886 -0.1776952
000380 4c a8 ad bd ad f8 5d 3d 2c b1 00 be 66 ab 40 3d
       -0.08479366 0.054192234 -0.12567586 0.04703846
000390 7d 50 6d 3d 4f 64 14 be 49 54 a0 3d e3 04 c7 bd
       0.057938088 -0.1449139 0.07828576 -0.09717729
0003a0 72 27 f1 bc 31 31 02 be ac c6 67 3d c8 28 36 bc
       -0.029437754 -0.12714078 0.056585953 -0.011118121
0003b0 d0 80 c6 bd fe 9f 71 bd de bd 1a 3e 7e 1f 08 bd
       -0.09692538 -0.05899047 0.15111491 -0.03323316
0003c0 3a af 18 3e 96 ed d2 bc a3 75 00 be 75 e1 14 bd
       0.14910594 -0.025748055 -0.12544875 -0.036347825
0003d0 15 70 b6 bd 36 7a 01 3e ad b9 f6 3d 52 75 a7 bd
       -0.08908097 0.12644276 0.120471336 -0.08176674
0003e0 d9 3d 19 bd e6 d6 99 bd 52 af 9e bd 53 97 0b be
       -0.0374125 -0.07511692 -0.077482834 -0.13631944
0003f0 f8 82 9c 3d e5 92 00 bd fa 53 fc 3d af c7 89 bd
       0.07642168 -0.03139009 0.12320705 -0.0672754

attn.Wk.bias f4 [64]
000000 1b a6 0d bd 6e d8 27 bc 88 fb 23 bd c5 d3 f4 bd
       -0.03458224 -0.010244472 -0.0400348 -0.11954454
000010 d9 57 84 3d 83 66 ad 3d 9f 6d 83 3d 11 ef b6 bd
       0.06462068 0.08466818 0.06417393 -0.08932317
000020 9b 19 e8 3c 8f 5e 2d bd 42 57 c6 3d 86 ea 9c bc
       0.028332522 -0.042326506 0.09684612 -0.019154798
000030 8d b3 cf bd 25 1e 96 3d f9 e9 94 3d ba b8 8b 3d
       -0.101416685 0.07329968 0.07271189 0.06822343
000040 57 73 89 3d f4 4a 8b bc 6c 5d 21 3c 4c f8 43 bd
       0.067114525 -0.017003514 0.009848934 -0.047844216
000050 d5 c3 c0 bd 06 a1 66 bd 1e 37 ce bc 73 4e d8 bd
       -0.09412352 -0.056305908 -0.025172766 -0.10561838
000060 39 18 b2 bd 56 45 e3 3c ae 19 97 3d fa fa 16 bd
       -0.08696026 0.027743023 0.07377945 -0.036860444
000070 ae ed 21 bd 1e 2f f3 bd d3 2e f8 3c 08 1e a3 bd
       -0.03953331 -0.11874221 0.030295765 -0.079647124
000080 29 9d 30 bd 98 e5 8d 3d 6a 93 2a bd 86 a4 cf 3d
       -0.04311863 0.06928557 -0.04164449 0.10138802
000090 f0 61 6b 3d 52 ce 5e bc 12 dc 28 3d 0a c2 3f bc
       0.057466447 -0.013598995 0.0412255 -0.011703977
0000a0 f6 5b 0a bd d7 f3 01 bd 0c fd 91 3d e7 8b f4 3d
       -0.033779107 -0.031726684 0.07128343 0.11940747
0000b0 3e c3 ab 3d 83 e9 82 bd 48 c2 78 3d 70 ed 19 bd
       0.08386849 -0.06392195 0.060732156 -0.037579954
0000c0 cd 08 3b bc 73 12 e6 bd 77 ce ec bd 7b f2 c6 3d
       -0.0114156725 -0.11233988 -0.115628175 0.09714218
0000d0 44 65 bd bc 6c 7b a4 bd c1 7f 8e 3c b1 a5 af bd
       -0.023119576 -0.08031353 0.017394902 -0.08576525
0000e0 54 c2 5d bd 98 15 4c 3d 48 8c 51 3d 22 b8 de 3d
       -0.054140404 0.04982528 0.051159173 0.10874964
0000f0 0b 71 b8 3d 60 24 4b 3d d2 e1 dc bd ca eb df 3d
       0.09005936 0.049595237 -0.10785259 0.10933645

attn.Wv.weight f4 [64, 64]
000000 2e a5 e8 bd dd a7 74 bd 20 7d c3 bd f6 ac 17 bd
       -0.113596305 -0.0597304 -0.0954535 -0.037030183
000010 27 b5 78 bd 2c dc 6a 3d 05 ca 47 3a 23 6f 7c bd
       -0.060719635 0.05733888 0.0007621351 -0.061629426
000020 c3 6d 71 3d 17 9d ff 3b df 6c 60 bd 88 e2 ae 3d
       0.058942568 0.007800709 -0.054791328 0.08539301
000030 6a 20 99 bd a7 e1 90 bd 2e 3d ea 3c 1b 64 12 3c
       -0.074768856 -0.0707429 0.028593626 0.008935
000040 ae 1d 94 3d dc 50 a5 bd ec f8 84 bd 4c 34 eb 3a
       0.072322235 -0.08072063 -0.064927906 0.0017944663
000050 25 82 60 3d 25 e2 73 bd 53 f6 c6 bd 44 41 d9 bd
       0.054811615 -0.05954184 -0.09714951 -0.106081516
000060 43 d7 b1 3c c1 ea 5d 3d 04 48 c4 3a 1b 49 9e bc
       0.02170909 0.054178957 0.0014975076 -0.019321969
000070 0c dc 3d 3b e4 91 b4 bc da e5 83 3d aa 0b 9c bd
       0.002897027 -0.022042222 0.06440325 -0.07619412
000080 f1 b6 2b 3d f9 c1 33 3c dc a1 44 3d 9f 49 d8 bd
       0.041922513 0.01097154 0.048005924 -0.10560917
000090 bb cd c9 3d 2d bd c4 bd e3 34 61 3d 86 31 d2 bd
       0.09853693 -0.09606395 0.054982077 -0.10263352
0000a0 2d 9b b6 3d 82 f4 b8 3c 91 aa ee bd 87 7b 7a 3d
       0.08916316 0.022577528 -0.11653627 0.06115296
0000b0 7d e6 ac 3d 93 bc b9 3d fe 64 7b 3d d9 d0 c6 3c
       0.084424 0.09069171 0.06137561 0.024269508
0000c0 29 19 d4 3b 50 9e 14 3d d6 b3 ee 3d 19 c3 d1 3c
       0.006472726 0.03628379 0.11655395 0.025605725
0000d0 1c d0 81 3d 3c 43 d2 bd 4f c5 85 3d f0 41 66 bb
       0.06338522 -0.1026673 0.06531774 -0.0035134517
0000e0 1e 58 a5 3d 20 69 ea 3d e3 18 76 3d 52 36 fd bd
       0.08073448 0.11445832 0.060082328 -0.123638764
0000f0 e3 1f 9b 3c 9d f0 ec bd b5 63 20 bd 84 5d ba 3c
       0.018936103 -0.11569331 -0.039157588 0.02274967
000100 d2 99 c9 bd a5 26 75 bd 41 f0 bf 3d b3 d5 02 bd
       -0.09843792 -0.059851307 0.09371997 -0.03194208
000110 8e f4 9c 3d a9 e2 75 bc fb 7c dc 3d a4 1c d9 bd
       0.076638326 -0.015007653 0.10766026 -0.10601166
000120 e5 f9 db 3d 39 38 8b 3a 9d a5 d2 bd 0e da 41 bc
       0.10741023 0.0010621614 -0.102854945 -0.011831773
000130 0b 7b 42 bc 4d 5e b7 bd 70 64 14 bd a6 2e 3e 3d
       -0.011870156 -0.08953533 -0.036228597 0.046431206
000140 47 ca b4 bc 77 b2 e6 3d f5 5a b0 bd 51 4f da 3d
       -0.02206911 0.11264508 -0.08611099 0.1065966
000150 b6 68 6f 3c 9e e8 1c 3d 5e 99 a9 bd 17 a4 cc bd
       0.014612367 0.03830778 -0.082812056 -0.09992235
000160 5e e8 b8 bd c0 6c df bd 05 29 f8 3d fa 36 d4 bd
       -0.090286955 -0.10909414 0.12117199 -0.103620484
000170 75 6f 5e bd de 9c 1b 3c 00 93 94 3d e5 ba 80 bd
       -0.054305512 0.009497849 0.072546005 -0.06285647
000180 b4 7a 7c bd d3 cb a3 3d 44 44 d6 3d b3 c2 7d bd
       -0.061640456 0.07997861 0.104622394 -0.061953258
000190 e1 f4 71 bc 58 67 46 bd fd cd bc 3d 32 70 30 bd
       -0.014767856 -0.0484384 0.09218977 -0.043075748
0001a0 37 62 6b 3d 5e bf 21 3b 82 ef 97 bd a5 fa be bb
       0.05746671 0.0024680714 -0.07418729 -0.005828219
0001b0 9b 2f ba 3d 09 5f ae 3d 37 93 28 bd ba bd 0d 3d
       0.09091111 0.0851422 -0.04115602 0.034604765
0001c0 93 3d d9 3d cf d2 10 3c 6b 28 bf bd 9e 12 94 3d
       0.106074475 0.008839323 -0.09333881 0.072301134
0001d0 c2 6a 68 bd 80 fa 66 3d ac ec ea 3d b2 52 af bd
       -0.056742437 0.05639124 0.11470923 -0.08560695
0001e0 8d 6c 69 3d a0 70 5f 3d 53 2b 66 3c e2 a1 46 3c
       0.056988288 0.054550767 0.014048415 0.012123557
0001f0 4a cf 8a bd 8d 20 c4 bd 68 19 dc bd 44 fe c6 3d
       -0.067778185 -0.09576521 -0.10747033 0.09716466
000200 e0 10 b3 bd 16 4b 0c bd f8 73 9d 3d b4 c1 9a 3d
       -0.08743453 -0.034251295 0.07688135 0.07556477
000210 19 33 64 3d 4c 0e c3 bd cf ef 41 bd 1c c0 b9 bd
       0.055712793 -0.09524211 -0.04734784 -0.09069845
000220 15 9b ef 3d 77 1c aa bd f2 b0 83 3d 42 67 07 bd
       0.116995014 -0.083062105 0.06430234 -0.03305746
000230 21 b3 e8 bd a7 46 55 3d fd b7 70 3d 35 05 c1 bc
       -0.11362291 0.052069332 0.058769215 -0.023562053
000240 72 ce 8f bd 5d 70 95 bd 73 be be bd 42 bf 54 3c
       -0.07021798 -0.07296822 -0.09313669 0.012985053
000250 f8 c8 d3 3c 53 7b 52 3d b4 59 c3 3d a0 8b b8 bd
       0.025852665 0.051387142 0.09538594 -0.09011006
000260 31 39 01 bc cd 06 7f bd 77 05 55 bd 4a 87 be 3c
       -0.007887171 -0.062262345 -0.052007165 0.02325787
000270 ed a9 1b 3d ef ab e5 bd f3 76 df 3d d2 7e 0d bb
       0.03800385 -0.11214434 0.1091136 -0.0021590483
000280 21 9e b7 bd a9 41 a3 3c 40 45 38 3d 73 9b 08 bd
       -0.089657076 0.01992877 0.044987917 -0.033351373
000290 9f 64 bc 3d 66 5c 64 bd ea bb d1 3d 23 96 97 bd
       0.091988795 -0.05575218 0.1024092 -0.07401683
0002a0 01 0a 98 bd ad f3 28 bd d8 b9 bc 3d 55 f6 06 3d
       -0.07423783 -0.041248012 0.092151344 0.032949764
0002b0 9d ba c8 bc 92 4a a1 bd c0 bd 0a bd ef 40 70 3d
       -0.024503047 -0.07875551 -0.033872366 0.058655676
0002c0 1f 30 b3 bc e5 43 a7 3d 3c 45 8e bd eb b6 bf 3d
       -0.021873532 0.08167247 -0.06946799 0.09361061
0002d0 16 79 57 3d 9b 1f 84 bd 11 cf 24 3d bd 33 dc bd
       0.05260571 -0.06451341 0.040236536 -0.10752056
0002e0 2b 79 cb 3d e8 d4 16 3d 6c 01 aa 3d 53 70 cd 3d
       0.0993522 0.036824137 0.083010525 0.1003119
0002f0 1f c5 8b bd ae bf 97 3d ca c0 cf bd 0a bd 4f 3d
       -0.06824707 0.07409607 -0.101441935 0.05071739
000300 54 ad aa 3d a3 ff 81 3d 2b cd 1a 3c 7f e6 8b 3d
       0.08333841 0.06347587 0.00944833 0.06831073
000310 81 6f ce bb f7 48 d9 bd 1d a9 6f 3d 11 58 4c 3d
       -0.0062999134 -0.1060962 0.05851089 0.049888674
000320 80 0c 3c 3d b3 d6 c1 bb 99 29 94 bd 77 88 53 bd
       0.04591036 -0.0059154867 -0.072344966 -0.051643815
000330 5c fa a3 bd 7f 40 da bc 51 c8 60 bd f8 9a 80 3d
       -0.08006737 -0.026642082 -0.054878537 0.06279558
000340 c3 b4 a0 bc 61 66 67 bd 0a 2a 85 3d 7f d9 c1 bd
       -0.019617444 -0.05649412 0.06502159 -0.09465312
000350 03 02 05 bd 98 2b 6d bd f0 39 bb 3d 8c 62 88 3d
       -0.03247262 -0.057902902 0.0914191 0.06659421
000360 42 6f 91 bd 61 08 cb bb ba b1 a1 bd 27 9f 67 3d
       -0.07101299 -0.006196067 -0.07895227 0.056548264
000370 ac 2a f9 3c 9b c5 c2 bb 61 f6 02 3c 48 50 a3 3d
       0.030415855 -0.0059439666 0.007993312 0.07974297
000380 b4 88 b1 3d 6c 01 2c 3d 96 2d e2 bd 39 14 2d 3c
       0.08668652 0.041993544 -0.11043851 0.0105639035
000390 d2 08 8f bd 91 0e b6 3c 21 29 15 bb 90 d7 dd 3d
       -0.06984104 0.022223743 -0.002276011 0.10832131
0003a0 98 76 ba bc 83 ce 69 bd f8 28 94 3d 13 50 7e bd
       -0.022761628 -0.05708171 0.07234377 -0.062088083
0003b0 2c 47 64 bc 65 08 8d 3c b9 c3 c0 3d b8 ea 5e 3d
       -0.013932984 0.017215917 0.09412331 0.054423064
0003c0 3d 60 c5 3d 98 6e 97 3d 72 cd d6 bd 4c da a9 bd
       0.096374966 0.07394141 -0.10488404 -0.0829359
0003d0 bf bb f0 bd 47 fe aa 3d fb af af bd b5 ac 98 3d
       -0.1175456 0.08349281 -0.085784875 0.07454816
0003e0 e0 82 f3 3d c7 ae a8 3d 58 4d 3d 3d a7 94 c7 bd
       0.11890197 0.08236461 0.04621634 -0.0974515
0003f0 51 d0 8f 3b 9c 08 f9 3d 95 fd b7 3d da d7 91 3d
       0.004388847 0.12159845 0.08983914 0.071212485

attn.Wv.bias f4 [64]
000000 db f5 62 3d 1f 05 ad bd dc cb b5 bd b7 d6 44 bd
       0.055410247 -0.084482424 -0.08876774 -0.04805633
000010 40 d6 e1 bd 0c 0a b0 3d d3 81 99 3d 9c 31 1b 3d
       -0.11027193 0.08595666 0.07495465 0.037889108
000020 97 50 e7 3c 19 4e de 3c 22 da cd 3d 3c 0a 9e 3c
       0.02823667 0.02713685 0.10051371 0.01929199
000030 fa 54 d1 3d b3 36 23 ba 86 c1 94 3d d1 37 87 3d
       0.10221286 -0.00062261074 0.07263474 0.06602443
000040 86 bb f1 3d 04 46 2b bd 12 01 a1 3d b0 51 da 3c
       0.118033454 -0.04181482 0.07861532 0.02665028
000050 97 0e 10 3d cb e1 60 bd e1 eb 93 3d 31 36 88 3d
       0.035170164 -0.054902833 0.07222725 0.06650961
000060 9e ed 44 bd 28 42 83 3c d3 a0 1a 3d 84 59 a0 3d
       -0.048078172 0.016022757 0.03775103 0.07829574
000070 70 99 5f 3b f2 cd b2 3c ca 15 78 3b 62 0e 1a bd
       0.0034118555 0.021826718 0.0037854784 -0.037611373
000080 cb 7e 03 3d 78 6d 9a bd 4f 0c 63 bd 35 3b 94 3d
       0.03210334 -0.07540411 -0.05543166 0.07237855
000090 09 e6 f0 bd 0b 03 33 3d 6a 4b dc bd 13 55 54 3b
       -0.11762626 0.043704074 -0.107565716 0.003239934
0000a0 bf db af 3d ea 06 eb bb f9 51 65 bd b4 14 05 3d
       0.08586835 -0.007172455 -0.05598638 0.032490447
0000b0 53 43 b8 3d 7a 0b 99 3d d5 84 e0 bd 35 f9 38 3d
       0.08997216 0.07472892 -0.10962836 0.045159537
0000c0 33 ca 7f bd e8 d3 ec bd e7 fd ac 3d b7 54 61 bd
       -0.06244869 -0.115638554 0.084468655 -0.05501243
0000d0 24 21 bf 3d c0 61 e7 bc 75 1d 1b 3d 52 5c e4 bc
       0.09332493 -0.028244853 0.03786989 -0.027876053
0000e0 c7 a9 3d 3c f5 39 45 bd e3 38 09 3c 88 b3 bd 3d
       0.011576123 -0.048150975 0.008375379 0.092627585
0000f0 b8 4f 43 bd c2 c0 ff 3d 5c a6 8e bd e6 05 60 3d
       -0.047683448 0.124879375 -0.06965324 0.054693125

attn.Wo.weight f4 [20, 64]
000000 4e de 90 3d 9f 2c 9d bc 69 d7 0a 3d 39 ce 5c bd
       0.07073651 -0.019186316 0.033896837 -0.053907607
000010 b8 74 ab bd 64 24 cb 3d 05 db 3b 3d 11 65 9a bd
       -0.08371872 0.0991905 0.04586317 -0.07538808
000020 88 aa 28 bd 04 f6 b1 bd a0 59 ee bd 72 e3 98 bc
       -0.041178256 -0.08689502 -0.11638188 -0.018663142
000030 a1 57 c6 bd 42 47 53 3c 6d 4e d8 3c 4f 09 69 3b
       -0.09684683 0.012895407 0.026404584 0.0035558527
000040 38 a4 fa bd a2 df 88 bc 33 f1 3e bd c6 a5 f7 bc
       -0.122383535 -0.016708199 -0.046616744 -0.030230414
000050 d9 f7 5a bd c2 fb c6 3c b2 ad bf 3b 15 87 a7 3b
       -0.053459022 0.02428997 0.0058495635 0.0051125386
000060 5d 65 88 3d 38 b8 a5 bc 0e db 06 3d 56 67 b3 bc
       0.066599585 -0.020229444 0.03292375 -0.02189986
000070 5f 37 ad bd b1 3c f3 3c ef cc 92 3c 8c da ab 3c
       -0.08457827 0.029692026 0.017919986 0.020978235
000080 99 9a 86 3c c9 2f 9a 3d 51 ed 91 bd 96 ce 9c bb
       0.01643114 0.075286455 -0.07125343 -0.004785369
000090 af f0 38 38 76 c3 42 bc a5 b6 46 bd f2 70 25 bd
       4.4093173e-05 -0.011887422 -0.048514027 -0.040390916
0000a0 7f d7 04 bd 03 7e a1 3d c2 12 ab 3d f7 aa 8c bd
       -0.032432076 0.07885363 0.08353187 -0.068685465
0000b0 b4 5c 72 bd 17 3b 4e 3d bd 95 88 bc d4 16 86 3b
       -0.05917044 0.05034932 -0.016672963 0.004092077
0000c0 26 98 05 3c 58 91 9e bc fc f1 80 3d 44 38 4a 3d
       0.008153951 -0.019356415 0.06296155 0.049370065
0000d0 16 ca 23 3d bd ba fe bb 3c eb 35 bd 7b 0e 0b bd
       0.039987646 -0.007773726 -0.04441379 -0.033949357
0000e0 e0 f7 db bc f2 1e 99 3d 01 c7 e8 3d f0 af 73 bd
       -0.026851594 0.074766055 0.11366082 -0.05949396
0000f0 87 32 7d bd 7a 0f a8 bd b4 3a a1 bd 4b a5 7d 3c
       -0.061815765 -0.08206077 -0.07872525 0.015481303
000100 11 6f 7e 3c f5 d1 5c 3d c9 8f 07 3d 04 da 26 3d
       0.01552941 0.053911168 0.03309611 0.04073526
000110 11 f5 80 bd dd f6 73 3d c9 e7 08 3d 60 37 da bd
       -0.06296743 0.0595616 0.033424173 -0.10655093
000120 1b d4 88 bc 53 00 ea 3c 18 23 81 bd a6 4c 95 3b
       -0.016702702 0.028564608 -0.06305522 0.0045562563
000130 8e e1 8f bd 16 04 62 bd 51 67 3f bd f5 f4 14 3b
       -0.07025443 -0.055179678 -0.04672939 0.0022729014
000140 4b e9 3b bd 96 46 5b 3c 1c a8 13 3d 97 7f b0 bd
       -0.045876782 0.013383528 0.036048993 -0.08618086
000150 12 41 cb 3c 02 c0 2a bc 8e ba 3c bd f7 0c 3d 3b
       0.024811301 -0.010421755 -0.04607635 0.002884684
000160 83 48 2d bd f5 f5 04 bc 21 78 92 bd 03 0f 2a 3d
       -0.04230548 -0.008115281 -0.07151819 0.041518223
000170 1a a9 af 3d 21 a1 8b 3d f0 b9 6e 3d 6b 63 9a 3d
       0.085771754 0.06817842 0.058282793 0.07538494
000180 bf 59 d2 3d 98 df a4 3d 9d 40 b0 3d 56 c3 98 3b
       0.10271024 0.080504596 0.08606074 0.0046619577
000190 b3 bd bc 3d 95 94 43 bc b1 66 bd 3d 6d fc 22 3c
       0.0921587 -0.01193728 0.092481025 0.009947878
0001a0 d0 50 c8 3b a4 09 ac bd f7 9c ad bb 01 3b 8c 3b
       0.006113149 -0.08400276 -0.0052982527 0.0042794948
0001b0 83 17 10 bd 89 20 6e bd 1e 62 95 bd fc 84 1a 3d
       -0.035178673 -0.058136497 -0.07294105 0.03772448
0001c0 76 ae 38 bd c9 09 d4 bc f6 c5 b3 3c 95 a5 7b bd
       -0.045088254 -0.025883572 0.021944981 -0.06143721
0001d0 21 b4 a0 bd ed fd 41 bd 63 65 18 3d c6 b1 10 bd
       -0.07846857 -0.047361303 0.037206065 -0.035325788
0001e0 af 9f 55 3c 45 c2 d4 bc ec f3 93 3d bc 06 1e 3b
       0.01303856 -0.025971541 0.07224259 0.00241129
0001f0 26 25 46 3d 1c d5 3a 3d ff a5 71 3d 08 2a cb 3b
       0.04837527 0.045613393 0.058996197 0.006200079
000200 5f 51 e9 3b e3 2f b7 bd 66 d5 ee bc db df ac bd
       0.007120296 -0.089446805 -0.02915449 -0.084411345
000210 b8 b9 f4 bc b9 06 04 be 42 72 2a bc fe 16 9b bd
       -0.029873714 -0.1289319 -0.010403218 -0.07572745
000220 a8 cf 75 3d b7 b8 22 3c a4 7b 9a bd 68 47 33 3d
       0.06001249 0.009931735 -0.07543114 0.04376927
000230 e9 98 3c 3d 21 3b 83 bd c9 f7 49 bc ab c7 f7 3d
       0.046044264 -0.06407762 -0.012327143 0.120986305
000240 e8 2f 15 bc 10 a2 20 3d 62 d5 42 bc c2 bc 0b bd
       -0.00910566 0.039217055 -0.011891695 -0.03411556
000250 65 c1 69 bd f3 2d 97 bc 48 cc 92 bc e6 1e 8e 3d
       -0.0570692 -0.018454527 -0.017919675 0.06939487
000260 94 2e 91 bc 19 27 6e bc 73 dc 95 3c 24 5d 40 bc
       -0.017722405 -0.014535689 0.018293595 -0.011740956
000270 ad 64 60 bc ca 5c a5 3d 60 74 3a 3d 64 bd b9 bd
       -0.013695878 0.08074339 0.04552114 -0.090693265
000280 33 a4 8a 3d 22 05 17 3d 48 1c 3b 3d 34 c5 80 bd
       0.067696 0.03687013 0.045681268 -0.062876135
000290 81 b2 a4 3b 44 d6 66 bc be 18 dc 3c 22 94 1b bd
       0.005026162 -0.014089171 0.026867267 -0.037983067
0002a0 4d 01 ad bc 89 f8 11 3c cd 83 84 3d 6b db da bc
       -0.021118784 0.008909353 0.064704515 -0.026715955
0002b0 42 6a 93 bd 2e b8 04 3d 4f 8b 61 3c 4c f2 53 3c
       -0.071980014 0.03240221 0.013766124 0.012936186
0002c0 61 72 40 bd 3b c2 a1 bd af 51 60 bd 09 2d 49 3d
       -0.04698408 -0.07898375 -0.0547654 0.049115214
0002d0 b4 0d b4 3d 35 c7 cf bd bb bf 93 bc e6 63 65 bc
       0.08791676 -0.101454176 -0.01803576 -0.014000868
0002e0 13 60 fc bc af d9 c4 3c ac 55 2b 3d ad 37 15 3d
       -0.03080753 0.02402958 0.04182975 0.03643005
0002f0 cc 94 34 bc e1 27 9b bd 80 76 ef 3d f2 d4 19 bc
       -0.011021804 -0.07575966 0.11692524 -0.009389149
000300 7a f8 7d bc ef a9 35 3d ba 82 05 be 53 22 a2 bc
       -0.015501136 0.044351514 -0.1303815 -0.019791758
000310 a8 5e 4c bd 6c 34 6a 3c c8 06 b2 3c da 13 03 3d
       -0.04989496 0.014294725 0.02173175 0.032001354
000320 a1 d7 67 3d 36 3a c2 bc 08 f1 f7 3c fa e2 23 3c
       0.056602124 -0.023709398 0.0302663 0.010002846
000330 ba e3 2f bb 34 4a 3e 3c 7a b2 7d 3d b5 7b 52 bc
       -0.0026838616 0.011614371 0.061937787 -0.012846877
000340 bc 64 6c bc 24 d6 8e bd e7 18 0f 3d 30 df 13 bd
       -0.014428314 -0.06974438 0.034935858 -0.03610152
000350 08 e6 9f 3c b8 fa be bc 3b f2 6e 3d cf c2 a6 3d
       0.019518867 -0.023312911 0.058336478 0.081426255
000360 86 0a 48 3d 27 fb 26 3d 70 f0 08 bd 09 67 55 bd
       0.04883816 0.04076686 -0.033432424 -0.052100215
000370 5d 1e b7 bc 8e ae a1 bc 5f 2d e8 bd 22 ad 98 3d
       -0.022353346 -0.019736554 -0.11336779 0.074548975
000380 cb d2 1a bd d0 83 0e bd e4 83 3a 3d e6 73 40 bc
       -0.037798684 -0.034793675 0.045535937 -0.011746382
000390 1d 52 99 3d c3 2a c8 3a 4b c8 75 bd 73 2b 04 bd
       0.07486365 0.0015271533 -0.060005467 -0.032268
0003a0 5c 9a f0 3c cf dc a4 3d 8d a0 23 bd 7e fa 5f 3d
       0.02937048 0.080499284 -0.039948035 0.054682247
0003b0 3a a0 35 3d b8 41 6c bd 07 1a ab bd 70 ff ac bc
       0.044342257 -0.05767986 -0.08354574 -0.021117896
0003c0 9f 68 41 bd 81 29 05 bd d2 1f 8c bd e1 69 35 3d
       -0.047218915 -0.032510284 -0.06842007 0.044290427
0003d0 5f 0f 63 bc 56 00 9a 3d 17 65 4c 3b 76 68 38 bd
       -0.013858645 0.07519595 0.0031188184 -0.045021497
0003e0 28 1e 6e 3c 39 27 b4 3c 8c 4f e7 3d e3 97 b7 3d
       0.014533557 0.02199136 0.11294469 0.08964517
0003f0 61 71 49 bd f1 8f b0 3c 26 05 ad bd 1c d1 17 bc
       -0.049180392 0.021553012 -0.084482476 -0.009266164

attn.Wo.bias f4 [20]
000000 f2 74 bf bd 89 71 26 bd d3 ef 4f bc b8 d1 a9 3d
       -0.093484774 -0.04063562 -0.012691456 0.08291954
000010 5d 9a 51 3c b5 51 8e bd 25 3e 58 3d 94 7b df 3d
       0.012793151 -0.06949178 0.05279364 0.109122425
000020 75 12 0a be c7 20 53 3b ae 5a 94 ba 60 b6 e7 3c
       -0.13483603 0.0032215582 -0.0011318529 0.028285205
000030 bb 1d cb 3d 50 cc 27 3d 07 2d dd bd 3e eb 0b 3e
       0.0991778 0.040966332 -0.10799604 0.13663957
000040 b8 52 89 bd d4 28 1b bd 00 97 1e bd 9e 3a 2a bd
       -0.067052305 -0.037880734 -0.038718224 -0.041559808

out.0.weight f4 [40, 20]
000000 47 74 b8 3d 7a 8d 50 bd d2 41 81 3d 79 8f 12 be
       0.09006553 -0.050916173 0.06311382 -0.14312543
000010 c5 46 8c 3c 64 15 d0 bc 24 6d 10 3e 31 75 70 be
       0.01712359 -0.025400825 0.14104134 -0.23482205
000020 e2 14 35 bc 4a 7b 6e bd d2 ab 89 bd 8d 19 82 bd
       -0.011052342 -0.058223046 -0.06722225 -0.0635253
000030 ea d8 6b 3e 87 42 89 be 62 cd 30 be fe 83 fe bd
       0.23031965 -0.2680857 -0.17265847 -0.12427519
000040 c0 68 f2 bd 61 2d a7 3a 41 19 af bd bb b6 73 bd
       -0.11836386 0.0012754613 -0.08549739 -0.059500437
000050 06 d0 33 3e 90 42 2b be 0a 0b 0e 3e be e4 24 be
       0.17559823 -0.1672461 0.13871399 -0.16102883
000060 29 17 a4 3d c9 9a 5b bd 8e 2f 83 bc ff 09 cc bc
       0.0801223 -0.05361441 -0.016013887 -0.02490711
000070 0a 35 70 3e 24 28 19 3e 0e f3 bf bd fa 9f 83 bc
       0.23457733 0.14956719 -0.09372531 -0.016067494
000080 9a f2 27 bd 27 03 01 be 0a b0 e1 3d 0f 74 2f be
       -0.041002847 -0.12598859 0.11019905 -0.17134117
000090 c7 51 30 be dd 95 45 bc 23 46 5f 3d 9a 4b 4b bd
       -0.17218696 -0.012059656 0.054510247 -0.049632646
0000a0 b8 d3 04 be 04 2a 3d be 6d ce 96 3d 70 31 a2 bd
       -0.1297139 -0.18473059 0.07363591 -0.07919586
0000b0 e5 e5 c0 bd ee 52 42 3e ba 86 de bc 18 63 07 3e
       -0.09418849 0.18976948 -0.027163852 0.13221395
0000c0 4b 94 f9 3d 7a d9 85 3c 33 d6 84 bd d5 e3 0f 3a
       0.12186488 0.016339052 -0.06486168 0.00054889667
0000d0 05 d8 62 3d 25 0b da bc 36 5e ef bd e8 b8 1f 3d
       0.055381794 -0.026616642 -0.11687891 0.0389947
0000e0 8c d4 2a bc 0c 5e a8 3d 9d dc 60 3c 8b 99 d7 3d
       -0.010426652 0.08221063 0.013724473 0.10527333
0000f0 8b 1b 26 3e c6 2e 5b 3e 7f f1 01 bd a0 b5 9a 3d
       0.16221444 0.21404561 -0.03172445 0.075541735
000100 b8 fb 95 3d 60 5a 40 bd c0 23 ac bd 52 50 40 bd
       0.07323402 -0.04696119 -0.08405256 -0.0469516
000110 88 f0 1e 3e 1b 5c 17 3e ca f1 53 3e 1c 11 04 3d
       0.15521443 0.14781229 0.20697704 0.03224288
000120 80 9c 58 3e f0 47 d5 3d cd 60 45 3d 78 ae 34 be
       0.2115345 0.104141116 0.04818802 -0.1764468
000130 53 c7 9f bc 43 89 fd 3d 48 2a 12 bd 93 56 38 3d
       -0.019504225 0.12379696 -0.035684854 0.04500444
000140 a6 f0 ad bd 86 2a 2d 3e 91 45 89 3d 1b d4 d5 bd
       -0.08493166 0.16910753 0.06702722 -0.104408465
000150 ae 80 4d 3e 83 7e 86 3d 8c 5a 0f 3e 44 ea b2 bd
       0.20068619 0.06567099 0.13999385 -0.08736089
000160 9d 6f 29 bb 19 7b 01 bb 1a 50 38 be 1c 1f 24 3d
       -0.002585388 -0.001975721 -0.17999306 0.04006873
000170 ad 1a 3c 3e 69 e9 a3 3c e8 18 0f 3c 18 2f fb bd
       0.18369551 0.02000876 0.008733965 -0.12264842
000180 cc 28 f8 3c 36 2d 28 3e d8 49 dc 3d 8b 91 1f be
       0.030292891 0.16423497 0.10756272 -0.15582864
000190 6b a7 01 3e 5d b0 a4 bd 7b 5b e8 3d 26 88 0f be
       0.12661521 -0.08041451 0.113455735 -0.1401678
0001a0 c0 93 47 be f4 f4 c3 3d 99 1b 3e be 97 10 0b be
       -0.19489956 0.095682055 -0.18565215 -0.13580547
0001b0 5c 01 a0 bd 4e 0a a7 3d 5b c4 aa bd 6e ec aa 3c
       -0.07812759 0.08156262 -0.08338233 0.020864692
0001c0 7f d1 6a bd d3 54 30 be 72 0f 94 bd 70 8d af bc
       -0.057328697 -0.17219858 -0.072295085 -0.021429747
0001d0 7d 77 81 bd 58 b8 fb bd e4 f5 24 be 08 03 cf 3d
       -0.06321619 -0.1229102 -0.16109425 0.10108
0001e0 ba 1b 25 3e 4a e1 21 be 79 c0 8e 3d c0 b1 10 bd
       0.16123858 -0.15808597 0.06970305 -0.035325766
0001f0 b0 c6 24 3e 48 15 1f 3e eb 40 18 3e b2 59 b4 bd
       0.16091418 0.15535462 0.14868514 -0.088061705
000200 33 83 6f bd c0 bb d9 3d 0c 7f 5e 38 00 90 17 be
       -0.05847473 0.106315136 5.3047246e-05 -0.14801025
000210 71 1a 20 3e 22 3d 47 3d f8 b7 95 3d 17 90 35 3e
       0.15635087 0.048642285 0.0731048 0.17730747
000220 49 a8 16 be ee 5a b0 bd a0 9a 03 bd 84 aa 9a bc
       -0.14712633 -0.086110935 -0.032129884 -0.018880136
000230 f9 48 7d 3e 65 cc ef 3d a9 6c 3a 3e db 20 6a 3d
       0.24734868 0.11708907 0.18205513 0.05716024
000240 db 59 c6 bd f9 3d e3 3d 5c f4 9c 3d 92 d1 3f bc
       -0.09685107 0.11095805 0.07663795 -0.01170768
000250 7c d8 6e bc f1 3e ab 3d fa aa 66 3d ba f2 87 bd
       -0.014577981 0.083616145 0.0563154 -0.06638093
000260 ba f8 27 3e 99 9a 5a be 76 48 b5 bd 0a 97 0b be
       0.16403475 -0.21348037 -0.088517115 -0.13631836
000270 2f 76 0f be 78 ff cc 3d 73 50 2f 3e 68 b1 93 bd
       -0.14009927 0.10009664 0.17120533 -0.07211572
000280 fa 23 ad 3d 50 44 a8 bd 47 e0 a1 bc 83 09 2b 3e
       0.084541276 -0.082161546 -0.019760264 0.16702847
000290 a1 a2 89 bd 98 55 28 be b5 9b 16 be 85 4d 60 3d
       -0.06720472 -0.16438901 -0.14707835 0.05476143
0002a0 d8 b0 fe 3d 5a 6d 7b bd ed 96 19 3c 4c eb ff bd
       0.12436074 -0.061383583 0.009374362 -0.12496051
0002b0 81 57 25 3e 04 b7 54 bc 62 94 2d 3e d3 40 a1 3d
       0.16146661 -0.012983087 0.16951135 0.07873692
0002c0 17 ea 10 be 87 fe 9b bb 89 6a d2 bd 70 dc ee 3d
       -0.14151798 -0.0047605666 -0.10274226 0.11663139
0002d0 de aa 97 3d 5f b7 b8 3d c5 01 10 3e 6a fc 40 3d
       0.07405637 0.0901935 0.14063175 0.04711572
0002e0 f2 9d e0 bd cf c0 db 3d 48 a7 b4 bd c5 ff f5 bd
       -0.10967626 0.10730135 -0.08820969 -0.12011675
0002f0 1e ba 31 3e c1 56 30 3e 36 57 a6 bd 98 61 9d 3b
       0.17356154 0.17220594 -0.08122103 0.004802894
000300 9e cd ad bd 9b c2 ca 3d 86 eb 42 3d 30 4f 5f 3d
       -0.08486484 0.09900399 0.047587894 0.05451888
000310 63 96 02 be 53 23 df 3d 3d 0b 1e 3e 65 6b 1f 3e
       -0.1275268 0.108954094 0.15433975 0.15568312
000320 75 70 b6 3c 77 63 31 be f8 ac b4 bd 49 10 f9 bd
       0.02227042 -0.17323099 -0.08822054 -0.12161309
000330 b6 45 30 3e af 0d 41 3e 1d c6 4f 3d 11 37 30 be
       0.17214093 0.18852876 0.050726045 -0.17208506
000340 12 21 34 be e5 03 04 be dd 3a 00 3e aa 3e c4 bd
       -0.1759074 -0.1289211 0.12522455 -0.09582265
000350 b1 de 8d 3d 64 a2 a4 bc a5 16 dd bd 99 e4 fd 3d
       0.06927241 -0.020096965 -0.10795335 0.12397117
000360 5d b7 07 3e d0 7b 3b be 03 7e a6 3d 43 e6 05 be
       0.13253541 -0.1830895 0.081295036 -0.13076119
000370 e8 ab 0e be c2 98 f3 bd be 5d b7 3d 62 28 c2 bc
       -0.13932765 -0.118943706 0.08953427 -0.023700897
000380 d7 87 1f be 3b 75 9c 3d 21 c9 1b be fb 5e 49 3d
       -0.15579163 0.076395474 -0.15213443 0.049162846
000390 a8 0b 01 3e 6f 75 0e 3e 28 2b aa bd 8e de 5f bd
       0.12602103 0.13911985 -0.08309013 -0.054655604
0003a0 8e fd 12 be 0d 44 74 bc c2 7d 38 3e 2e c0 6f 3c
       -0.14354536 -0.014908803 0.18016723 0.014633222
0003b0 75 48 55 bd 54 ba db 3d 4a 64 73 be 17 6d 68 3d
       -0.052071054 0.10728899 -0.23768726 0.05674466
0003c0 ac 16 cb 3d 08 73 12 be 9d 9f f3 bd b6 e2 0d be
       0.09916434 -0.14301693 -0.11895678 -0.13856015
0003d0 bd 68 f8 3c 2b 7f ed bc f3 28 8a bd 0d fe 2b be
       0.03032338 -0.028991302 -0.06746092 -0.16796131
0003e0 fc 98 11 be 40 14 da 3c d3 ca 20 3d 58 f1 01 3e
       -0.14218515 0.026620984 0.03925593 0.12689722
0003f0 07 05 c9 3d a0 06 19 be ad 5f c2 3d 91 6f 24 3e
       0.09815412 -0.14943933 0.09490905 0.16058184
