old files/models/old models/best_goodwin_fld.pt (torch, 7578 bytes, 16 tensors)

channel_embedding f4 [2, 8]
0	0x3e27f025	0.16400202
1	0xbf1e81f8	-0.61917067
2	0xbf9d3c91	-1.2284108
3	0xbfa45086	-1.2837074
4	0xbee89fe8	-0.454345
5	0x3d70253f	0.05862927
6	0x3f9a2b17	1.20444
7	0xbf3f1713	-0.74644583
8	0xbf3386ec	-0.7012775
9	0x3e5040c2	0.20337203
10	0x4012f85d	2.296409
11	0x3fdd514f	1.7290438
12	0xbf0a1eb0	-0.53953075
13	0x3cf06d9b	0.029349139
14	0x3cf14ab6	0.02945457
15	0x3f8cc8de	1.09988

query f4 [1, 4, 8]
0	0xbf4db88a	-0.8035971
1	0x3f970684	1.1798863
2	0xbf920055	-1.1406351
3	0xbf05f800	-0.5233154
4	0xbeeabea3	-0.4584857
5	0xbfc0947e	-1.5045316
6	0x3f0194e3	0.5061781
7	0x3f586545	0.84529525
8	0xbf17d9e3	-0.59316844
9	0xbf32642c	-0.696841
10	0xbe81d426	-0.2535717
11	0xbd198083	-0.037476074
12	0x3f3d8ed4	0.74046063
13	0xbf0cf1a5	-0.5505622
14	0x3ef27339	0.47353533
15	0xbf817573	-1.0113968
16	0xbf3e1acd	-0.74259645
17	0x3fe3500b	1.7758802
18	0x3e32e718	0.17470968
19	0xbf38480c	-0.71984935
20	0x3dd7a52f	0.10529553
21	0xbfe1cd34	-1.7640748
22	0x3f0c0be7	0.5470566
23	0xbf8539b2	-1.0408232
24	0x3e838b14	0.25692046
25	0x3fb443f1	1.4083234
26	0xbf21e764	-0.632437
27	0xbe9d1afa	-0.30684644
28	0x3f01ab12	0.5065166
29	0xbeea8da0	-0.45811176
30	0x3faac544	1.3341451
31	0x3f5d9db6	0.8656877

attn.Wq.weight f4 [8, 8]
0	0xbde6e71b	-0.112745486
1	0xbf02fc3d	-0.51166135
2	0x3f0e1606	0.55502355
3	0x3e13c073	0.14428882
4	0xbe221b00	-0.15830612
5	0x3f20089a	0.62513125
6	0xbf2c3508	-0.6726842
7	0xbd6f2782	-0.058387287
8	0x3f287df3	0.65817183
9	0xbd7d725e	-0.061876647
10	0xbe7df797	-0.2480148
11	0x3d695238	0.056963176
12	0xbe309e79	-0.17247953
13	0x3e0af584	0.1357022
14	0x3ee7f38e	0.45303005
15	0x3f2dbc5a	0.67865527
16	0xbf383859	-0.7196098
17	0xbd8b8bac	-0.0681375
18	0x3db8a517	0.090158634
19	0xbedcc295	-0.43117204
20	0xbe222f05	-0.15838249
21	0xbf246d3b	-0.6422917
22	0x3e532ad2	0.20621803
23	0xbeb7a64f	-0.3586907
24	0xbf4675b4	-0.7752335
25	0xbc976b24	-0.018483706
26	0x3dff8c0f	0.12477886
27	0xbd5c292f	-0.053750213
28	0xbed6afda	-0.4193104
29	0xbe113418	-0.14180028
30	0xbe197316	-0.14985308
31	0xbf1403ad	-0.5781811
32	0xbe08a62b	-0.13344638
33	0x3dba04fc	0.09082982
34	0x3ec17a21	0.3778849
35	0x3ece95b6	0.40348595
36	0xbd8d624e	-0.06903516
37	0x3d23fbd3	0.04003508
38	0xbebce62c	-0.36894357
39	0xbde68e36	-0.11257593
40	0x3e6b8767	0.2300087
41	0xbd830b0c	-0.063985914
42	0xbdd0a1b6	-0.10187094
43	0xbed50286	-0.41603488
44	0x3e96aa13	0.2942663
45	0xbe480f4d	-0.19537087
46	0x3ea6ba5c	0.32564056
47	0x3e5bd3ef	0.21467565
48	0xbe8866a3	-0.26640806
49	0x3f1c4e07	0.6105656
50	0xbee9e3aa	-0.45681506
51	0x3d96566b	0.07340702
52	0xbd1ad68f	-0.037802275
53	0xbef1d905	-0.47235885
54	0xbba8b8fe	-0.005149006
55	0x3daf95b8	0.085734785
56	0xbd219d82	-0.03945685
57	0xbf0508e6	-0.519667
58	0x3f123cbb	0.5712392
59	0xbc6d0b53	-0.014468032
60	0xbf079ee8	-0.52976847
61	0x3e02b351	0.12763716
62	0xbeb3fa31	-0.35151818
63	0xbda557fd	-0.08073423

attn.Wq.bias f4 [8]
0	0xbec298ae	-0.3800711
1	0x3ea0b5eb	0.31388792
2	0xbdb94047	-0.09045463
3	0xbe15db71	-0.14634492
4	0x3df864d9	0.1212861
5	0x3e6ae91f	0.22940491
6	0x3e7cf6c9	0.24703516
7	0xbec5f1ff	-0.3866119

attn.Wk.weight f4 [8, 8]
0	0xbed853c5	-0.4225141
1	0xbe48ec75	-0.19621451
2	0xbee59d3f	-0.44846532
3	0xbe952808	-0.29132104
4	0x3c9e5b1f	0.01933056
5	0x3e7016e4	0.23446232
6	0x3eac2fc6	0.33630198
7	0xbe612abc	-0.21988958
8	0x3e284d43	0.16435723
9	0xbef400c3	-0.4765683
10	0xbe55369c	-0.20821613
11	0x3a625b6d	0.00086348393
12	0x3c59c874	0.013292421
13	0xbeee89a3	-0.46589383
14	0xbef0104a	-0.46887428
15	0x3e8aff38	0.2714784
16	0x3ee1ba19	0.44087294
17	0x3e43c83e	0.19119355
18	0x3ef1ab09	0.47200802
19	0x3f059969	0.5218721
20	0x3d021e61	0.031767253
21	0x3dd4e665	0.10395507
22	0x3f119e69	0.5688234
23	0xbdca4816	-0.098770306
24	0x3ed78765	0.42095485
25	0x3ef9b6ac	0.4877218
26	0x3d0a6729	0.033789787
27	0x3ea20473	0.3164402
28	0xbe5c2eb6	-0.21502194
29	0x3ef74ec0	0.4830227
30	0x3e9dc2e1	0.30812743
31	0xbe99c5f1	-0.3003383
32	0x3e124344	0.14283472
33	0x3dfa9612	0.12235655
34	0x3e0c8549	0.13722719
35	0x3e7f4457	0.24928413
36	0x3eacab75	0.3372456
37	0x3e10cc0c	0.14140338
38	0x3e0c5d21	0.13707401
39	0x3eb87260	0.3602476
40	0xbeecf48d	-0.46280327
41	0xbd044bf0	-0.032298982
42	0x3e02e64f	0.12783168
43	0xbe83ee75	-0.25767866
44	0x3e50acd7	0.20378433
45	0xbd21d5ed	-0.039510656
46	0xbed4d2cf	-0.41567084
47	0xbe5727f1	-0.2101133
48	0xbe0b84d8	-0.13624895
49	0xbee167a6	-0.4402439
50	0x3c720147	0.014770812
51	0xbee2290e	-0.44171947
52	0xbec2f825	-0.38079944
53	0x3e183ad2	0.14866188
54	0xbef2a50c	-0.47391546
55	0xbe9db586	-0.30802554
56	0x3e89fba7	0.26949808
57	0x3f26dfc7	0.6518521
58	0x3ddab46b	0.10678943
59	0x3e563bc8	0.20921242
60	0xbd130298	-0.035891145
61	0x3ed4925a	0.41517907
62	0x3eb12a86	0.34602755
63	0x3e3afde7	0.18260919

attn.Wk.bias f4 [8]
0	0x3e40e8c2	0.1883879
1	0xbe862d53	-0.26206455
2	0xbe3f1d6f	-0.18663572
3	0x3caf8d39	0.021429645
4	0xbe54f761	-0.20797493
5	0x3d455242	0.04817415
6	0x3e811570	0.25211668
7	0x3e4425c4	0.19155031

attn.Wv.weight f4 [8, 8]
0	0x3e98e164	0.2985946
1	0xbe20b757	-0.15694939
2	0xbe45762d	-0.19283362
3	0x3ea998e9	0.33124474
4	0x3e411c81	0.1885853
5	0x3ed1ea53	0.40999088
6	0x3e62a8be	0.22134683
7	0xbe9caed0	-0.3060212
8	0xbe0671f9	-0.13129415
9	0xbe832786	-0.2561609
10	0xbe22ab11	-0.15885569
11	0x3ee48ff8	0.4464109
12	0x3ea2c62b	0.31791815
13	0x3e59691c	0.21231502
14	0x3e0cd434	0.13752824
15	0xbe08e557	-0.13368736
16	0xbe9dfb42	-0.30855757
17	0xbed76d3d	-0.4207553
18	0xbec06d1d	-0.37583247
19	0xbe41ebb0	-0.18937564
20	0xbe90d8fc	-0.28290546
21	0x3dc18e90	0.0945102
22	0xbe97a8ab	-0.2962087
23	0x3e7ef28a	0.24897209
24	0x3d609266	0.054827116
25	0x3ea9e582	0.33182913
26	0x3e76a990	0.2408812
27	0x3e0913e1	0.1338649
28	0x3e302bfb	0.17204277
29	0x3eb1265d	0.3459958
30	0x3c42365f	0.011853783
31	0xbbf1b754	-0.0073765907
32	0xbe1b30d8	-0.15155351
33	0x3ba3c37a	0.004997668
34	0xbe77a842	-0.24185279
35	0xbe17f1ac	-0.14838284
36	0xbe2aff12	-0.16698864
37	0x3f064e95	0.52463657
38	0x3f3f0062	0.7460996
39	0xbe307e5c	-0.17235702
40	0xbe7ff476	-0.24995598
41	0x3ea44b3a	0.32088643
42	0x3db8c8fe	0.09022711
43	0x3e3c1fdf	0.18371533
44	0xbcc1dc1e	-0.02366453
45	0x3ea8418d	0.3286251
46	0x3e4901da	0.19629613
47	0xbe99981a	-0.29998857
48	0xbeb87c03	-0.36032113
49	0x3dea863a	0.11451383
50	0xbeec7185	-0.4618036
51	0x3e204fcd	0.15655442
52	0xbe7d2c51	-0.24723937
53	0xbe562031	-0.20910718
54	0x3daa23ae	0.083075866
55	0xbec9426c	-0.39308488
56	0xbea1b54f	-0.3158364
57	0xbc991693	-0.018687522
58	0xbdb8e8b3	-0.09028759
59	0x3e0f4cd8	0.13994157
60	0x3ee3030d	0.44338265
61	0x3ee713b4	0.4513222
62	0x3e93d779	0.2887533
63	0xbef5cce9	-0.48007897

attn.Wv.bias f4 [8]
0	0xbe5d35e5	-0.2160259
1	0x3de76419	0.11298389
2	0xbe0ab450	-0.13545346
3	0x3992083a	0.0002785342
4	0x3e05150f	0.12996314
5	0xbedbfd62	-0.42966753
6	0xbee363af	-0.4441199
7	0x3d91ceec	0.07119545

attn.Wo.weight f4 [20, 8]
0	0xbb1a1d74	-0.002351609
1	0x3e908efd	0.2823409
2	0xbebe4af7	-0.3716657
3	0xbe1f6d74	-0.15569097
4	0xbd99bc11	-0.07506574
5	0xbef1f18a	-0.47254592
6	0x3d8ce03b	0.06878706
7	0xbe62b054	-0.22137576
8	0x3eae475c	0.34038818
9	0xbe83156d	-0.25602284
10	0xbed30acd	-0.41219178
11	0xbb829829	-0.003985424
12	0xbf15bdad	-0.5849255
13	0x3c89d084	0.01682306
14	0x3f1f8426	0.6231102
15	0x3db02f9a	0.08602829
16	0x3c90b2c1	0.017663362
17	0x3d5df791	0.054191176
18	0xbe17b284	-0.14814192
19	0x3e6fb1a6	0.23407611
20	0xbf3df62d	-0.7420376
21	0xbefb5d60	-0.49094677
22	0xbe477421	-0.19477893
23	0x3a7c01bf	0.00096132973
24	0x3e56eee9	0.20989574
25	0x3d3973d1	0.045276467
26	0xbe04e726	-0.12978801
27	0x3ea54b9b	0.32284245
28	0xbe48aba5	-0.19596727
29	0xbe5dd5fc	-0.2166366
30	0x3d56c21e	0.05243122
31	0xbe74c573	-0.23903446
32	0xbb7013a2	-0.0036632796
33	0x3c662dda	0.014049018
34	0x3eb9f06f	0.3631625
35	0x3e6d615a	0.23181668
36	0x3ee0ffe5	0.43945232
37	0x3cbf65b6	0.02336393
38	0x3eb3fc94	0.3515364
39	0x3e174ec8	0.14776146
40	0x3c779bfd	0.015112874
41	0x3f053726	0.52037275
42	0xbd016d5f	-0.031598445
43	0x3db7e2cb	0.08978804
44	0xbed771fd	-0.42079154
45	0xbe8531da	-0.26014596
46	0xbefb29c2	-0.49055296
47	0xbe807bde	-0.25094503
48	0xbe77d220	-0.2420125
49	0xbe6d00bd	-0.23144813
50	0x3f065294	0.52469754
51	0xbe8bbd33	-0.27292785
52	0x3eea8fdf	0.4581289
53	0x3f168802	0.5880128
54	0x3d6e1664	0.058126822
55	0xbd3b0a5d	-0.04566418
56	0xbcea3dce	-0.028593924
57	0x3ee8bf0a	0.4545825
58	0xbdec72b8	-0.11545318
59	0xbe701b9d	-0.23448034
60	0xbef6a797	-0.48174736
61	0x3cc7e170	0.02439949
62	0xbd5dc5d1	-0.05414373
63	0x3ea55451	0.3229089
64	0x3c23880a	0.009981165
65	0xbca6da26	-0.020367693
66	0xbe2aace7	-0.1666752
67	0x3e2e5958	0.1702627
68	0x3e8dd6ae	0.2770285
69	0x3f4062ea	0.7515093
70	0x3f20a0f5	0.627456
71	0x3e2f250a	0.17103973
72	0xbeac90a9	-0.33704117
73	0x3e420ed6	0.18950972
74	0xbece9faa	-0.4035619
75	0x3e876240	0.26442146
76	0xbf3d147e	-0.73859394
77	0xbec4a59e	-0.38407606
78	0xbed04d1a	-0.40683824
79	0xbe2edc67	-0.17076264
80	0xbdf3f62c	-0.11912188
81	0xbdecd3fc	-0.1156387
82	0x3e78c1c8	0.24292672
83	0x3e022086	0.12707719
84	0x3ece58e6	0.403022
85	0x3f5e3165	0.8679412
86	0x3e03f9fd	0.12888332
87	0x3ea6ab2c	0.3255247
88	0xbeea1a9d	-0.4572343
89	0xbe86208e	-0.26196712
90	0xbeb54977	-0.35407612
91	0x3e3b7c59	0.18309154
92	0xbf1911d9	-0.5979286
93	0xbf1474fe	-0.57991016
94	0xbead1c5e	-0.33810705
95	0x3d12ea58	0.03586802
96	0x3e7fdf03	0.24987416
97	0x3eccb3d4	0.39980948
98	0xbd9fe54c	-0.07807407
99	0x3e53b5e3	0.20674853
100	0xbdf0ea59	-0.11763448
101	0x3cd03f42	0.025420789
102	0x3d76e1a8	0.060273796
103	0x3e17ee7f	0.14837073
104	0x3e42373c	0.18966383
105	0x3e8ea9a6	0.27863806
106	0xbe3e610e	-0.18591711
107	0xbea78ca1	-0.3272448
108	0x3c607f6e	0.013702257
109	0xbea2696d	-0.31721058
110	0xbe2f1131	-0.17096402
111	0xbd54f6a0	-0.051993012
112	0xba8e17b0	-0.00108408
113	0xbed9fba5	-0.42574802
114	0xbf06169a	-0.5237824
115	0xbd82d861	-0.06388927
116	0xbea87246	-0.32899684
117	0x3daee411	0.08539594
118	0x3e5fdc8a	0.21861473
119	0xbe6fc50e	-0.23415014
120	0xbecbc668	-0.3979981
121	0xbe8f3444	-0.27969563
122	0x3dc91c5a	0.09819861
123	0xbdec0cb1	-0.11525858
124	0x3e0728d0	0.13199162
125	0x3bacc625	0.005272644
126	0xbe908391	-0.28225377
127	0x3e9410f3	0.2891918
128	0x3e6f86c0	0.23391247
129	0x3c2af34b	0.010433982
130	0xbe46a2c9	-0.19398035
131	0xbe64d191	-0.22345568
132	0xbd3fe9ce	-0.046853833
133	0xbed702d5	-0.41994348
134	0xbc65be73	-0.014022457
135	0x3e9c9b57	0.30587265
136	0xbee7f6e1	-0.4530554
137	0x3caee021	0.021347107
138	0xbc838845	-0.01605619
139	0xbed7b4b1	-0.42130044
140	0x3f284d65	0.65743095
141	0x3ddbc124	0.10730198
142	0x3eb9e999	0.36311033
143	0x3e9eee4e	0.31041187
144	0xbe48c001	-0.19604494
145	0xbe182aef	-0.14860128
146	0x3e93da21	0.28877357
147	0xbec45fd0	-0.3835435
148	0x3e8e90db	0.2784489
149	0x3f0d9ad0	0.5531435
150	0x3e3c22e3	0.18372683
151	0x3eb53056	0.3538844
152	0x3e1c1ec6	0.15246114
153	0x3e56a764	0.20962292
154	0xbe569468	-0.2095505
155	0x3e655af2	0.22397974
156	0xbf0e5ef0	-0.55613613
157	0xbd97530b	-0.07388886
158	0x3cd93d27	0.026518418
159	0x3e7eea2b	0.24894015

attn.Wo.bias f4 [20]
0	0x3e8178de	0.25287527
1	0xbefef479	-0.49795893
2	0x3e6310c6	0.22174367
3	0xbd53826a	-0.051638044
4	0xbe01a2dd	-0.12659784
5	0xbe4e7c26	-0.20164546
6	0x3dcb375b	0.099226676
7	0xbd918dc7	-0.0710712
8	0xbdb091ce	-0.0862156
9	0x3eae2d1d	0.34018794
10	0xbe24e42f	-0.1610267
11	0xbe6aaaed	-0.22916766
12	0x3e636f6e	0.22210476
13	0x3ed19cfd	0.40940085
14	0xbe4a1c91	-0.1973746
15	0x3ecd2b17	0.40071937
16	0x3e563d32	0.20921782
17	0x3ebddbc5	0.37081733
18	0x3e14825b	0.14502852
19	0x3e5a82b4	0.21338922

out.0.weight f4 [2, 20]
0	0x3bd5c65b	0.00652389
1	0x3c8a1fbd	0.016860837
2	0x3e7dc3a4	0.24781662
3	0x3e6c5316	0.2307857
4	0x3e976274	0.295673
5	0x3f0c93f1	0.5491324
6	0x3daa4c22	0.083153024
7	0xbe4041e8	-0.18775141
8	0x3da3e25f	0.08002161
9	0x3ea0d9f8	0.31416297
10	0x3e3c59ac	0.18393582
11	0xbe8ed413	-0.27896175
12	0xbe54f173	-0.2079523
13	0xbe277d1e	-0.16356322
14	0xbdd1982b	-0.10234102
15	0x3df042d5	0.11731497
16	0xbe8029c3	-0.25031862
17	0x3e1068bc	0.14102453
18	0xbd800e31	-0.06252707
19	0xbe23b263	-0.15986018
20	0xbe107733	-0.14107971
21	0xbf8a615b	-1.081096
22	0xbde5d83e	-0.112228855
23	0xbed97e14	-0.42479002
24	0x3ea379d4	0.31928885
25	0xbd70009b	-0.058594327
26	0x3e554655	0.20827611
27	0xbe85b166	-0.26111907
28	0x3e892cba	0.26791936
29	0x3b461b76	0.003022877
30	0x3e85b6ed	0.26116124
31	0x3e9e097f	0.3086662
32	0xbe242877	-0.16031061
33	0xbe2d2613	-0.16909055
34	0xbf3c4aef	-0.7355184
35	0xbe729631	-0.23690106
36	0xbe6fb04b	-0.23407094
37	0x3e4126a8	0.18862402
38	0x3e6e6b81	0.23283197
39	0xbe6ad501	-0.22932817

out.0.bias f4 [2]
0	0xbda604e5	-0.08106402
1	0x3e10e0f5	0.14148314

time_linear.weight f4 [8, 1]
0	0x3f284203	0.65725726
1	0x3f3010fc	0.68775916
2	0x3f819a15	1.0125147
3	0x3f5f4cb6	0.87226427
4	0x3f42977f	0.76012415
5	0x3f032c45	0.51239425
6	0x3f3776a0	0.7166538
7	0x3ec156e4	0.37761605

time_linear.bias f4 [8]
0	0x3e41f9e4	0.18942982
1	0xbea11234	-0.314592
2	0x3efc409b	0.4926804
3	0xbd052d15	-0.032513697
4	0x3f1832f2	0.59452736
5	0xbf58be8e	-0.84665763
6	0xbf2f0619	-0.6836868
7	0x3f5e3f46	0.868153

V_proj.weight f4 [8, 2]
0	0x39d6c615	0.00040964843
1	0xbf557de5	-0.83395225
2	0x3f0c1f9a	0.5473572
3	0xbeeaad2a	-0.4583524
4	0xbcfd4879	-0.030918347
5	0xbf5edd0b	-0.87056035
6	0x3f49750b	0.7869422
7	0xbe98286c	-0.2971834
8	0x3d9c4f6f	0.07632338
9	0x3ea352c1	0.31899074
10	0x3f2460d7	0.64210266
11	0xbeb951c3	-0.36195192
12	0x3f3f46af	0.7471723
13	0xbe560fb8	-0.20904434
14	0xbf1d5c8b	-0.61469334
15	0xbeb7616e	-0.3581652

V_proj.bias f4 [8]
0	0xbefb0242	-0.4902516
1	0x3dc2ab9c	0.09505388
2	0xbe44efee	-0.19232151
3	0x3f0e94e4	0.5569594
4	0x3f115a1f	0.5677814
5	0xbf15fd48	-0.585896
6	0xbecad7ec	-0.3961786
7	0xbca32f9b	-0.019920161
